example_sidebar_verification_cartpole/dqn.pth (torch, 71479 bytes, 6 tensors)

layer1.weight f4 [128, 4]
000000 0d 54 db 3e f7 20 e9 be a0 7f 58 3f 8a 1a 0e 3f
       0.42837563 -0.45532963 0.8456974 0.55509245
000010 d5 fe 1b 3e 2b 15 57 bc 8f 22 fb 3e 38 77 60 be
       0.1523393 -0.013127605 0.49049804 -0.21920478
000020 13 0e b4 be 86 33 86 3e c3 f6 9e be 3d c3 ce bd
       -0.35166988 0.26211184 -0.3104764 -0.100958325
000030 c5 a7 aa bd 08 b6 04 3e 72 5b 15 bf 3b ed a5 be
       -0.08332781 0.12960064 -0.5834266 -0.32407555
000040 0f c6 f0 be 1e 0a 95 3d 41 df a9 bc 7a 02 0b 3e
       -0.47026107 0.0727732 -0.020736339 0.13575163
000050 66 f5 e0 3d 80 45 4d be 08 00 62 3f ec 7d 89 3e
       0.10984306 -0.20046043 0.882813 0.26853883
000060 5a 6c f6 be 91 a2 7d 3e a1 54 f2 be d3 15 d1 bc
       -0.4812954 0.24769045 -0.47330192 -0.025523102
000070 f3 46 69 be c6 8d 2c be 95 d6 e0 3e 06 7a f0 bc
       -0.22780971 -0.16850957 0.43913713 -0.02935506
000080 5b 2a 18 3f a6 46 26 bc f7 e7 fc be cb 47 b5 3d
       0.5943963 -0.01014868 -0.49395725 0.08851584
000090 4d d8 79 3e 07 28 33 be b1 67 01 bf a5 5d f1 be
       0.24398918 -0.17495738 -0.50548846 -0.47141758
0000a0 02 32 2c be e2 61 99 3c 09 83 1f bd 90 fe 1a 3e
       -0.16815951 0.018723432 -0.038943324 0.1513617
0000b0 2b 8e 64 be db fa de be 47 49 12 3f 47 5e 8b 3e
       -0.22319858 -0.43550763 0.5714306 0.27220365
0000c0 f3 2e 08 bf f7 80 8a 3e 6b 9c 14 3d 39 29 d7 bc
       -0.5319664 0.27051517 0.036281984 -0.026264774
0000d0 52 f0 f1 3d 40 a6 8a 3e 69 d3 42 bf a8 b8 c2 be
       0.118134156 0.27079964 -0.76103836 -0.38031507
0000e0 ee 60 2c bf e9 c7 9d 3e 26 0a 1c 3f 29 c6 10 be
       -0.673354 0.30816582 0.60952985 -0.14138092
0000f0 2f 06 59 be 1c 65 b3 3e d2 cf 63 3f a1 35 12 3f
       -0.21193765 0.35038078 0.88988984 0.5711308
000100 83 c5 e5 3e 4e b0 fd 3e e7 2f 26 bf 3a b2 05 bf
       0.44877252 0.49548572 -0.64916843 -0.5222508
000110 cc 84 2f 3f 19 3e bf bd 97 07 b3 3e 72 6b a0 bd
       0.68562007 -0.09338016 0.34966728 -0.078329936
000120 db e6 38 3d 3c 8e 14 3e 3e 64 8c 3e 84 8b 4c 3e
       0.045142036 0.14507383 0.2742023 0.19975096
000130 ea 19 80 3e 04 76 6f be bc 7c 95 ba 42 42 38 be
       0.2501977 -0.23384863 -0.0011404972 -0.17994025
000140 58 58 4f 3e ac 04 c9 3e 4e 93 2a 3d 4c e9 1f 3e
       0.20248544 0.39261377 0.041644387 0.1561634
000150 2b 44 a6 3e 0f 24 75 be f7 c0 7e be 23 5a d9 be
       0.32473883 -0.23939537 -0.24878298 -0.4245158
000160 c3 a5 d2 be b9 72 66 3e 1e 92 a5 bd 2f a9 82 3e
       -0.4114209 0.225047 -0.0808451 0.25519702
000170 bd b8 32 be d3 88 00 bc c9 13 85 bf 8d 45 55 bd
       -0.17453285 -0.007845121 -1.0396663 -0.052068282
000180 01 ab 91 3e 8b a7 61 be 09 46 9a bb 2e 6d fa 3e
       0.28450778 -0.22036569 -0.004708056 0.48911422
000190 18 b0 91 3e 58 e9 85 bd ff 9f 94 be 76 8c 02 bf
       0.2845466 -0.065386474 -0.29028317 -0.50995576
0001a0 13 b6 61 3e 19 7c 18 bf fa 92 8c 3d 19 d8 14 3f
       0.22042112 -0.5956436 0.06863971 0.5814224
0001b0 7c 84 4d be dc 95 b0 be 74 74 08 bf 05 d1 c6 be
       -0.2007007 -0.34489334 -0.53302693 -0.38831344
0001c0 3b 75 ea be 39 e1 78 bd 8b 55 66 be 1f d0 d7 be
       -0.45792565 -0.060761664 -0.2249357 -0.4215097
0001d0 c2 a1 ff 3d ce c2 0f bf 49 6b a9 be 6b 87 53 3e
       0.12482025 -0.56156623 -0.33089665 0.20657127
0001e0 3b 3e b7 bd e8 97 54 3c 02 b8 72 be d1 12 fe be
       -0.089474164 0.01297567 -0.23703006 -0.4962373
0001f0 6b b6 9d 3e 5a c9 8a be 87 1c 7f 3e d6 e8 80 bd
       0.30803236 -0.27106744 0.24913226 -0.0629441
000200 52 52 f2 3e e9 85 a5 3e f5 37 42 3d f9 89 92 be
       0.4732843 0.32328728 0.047416646 -0.2862089
000210 fc ca 90 be 70 71 9b 3d 66 13 48 3f 96 fa 11 3f
       -0.28279865 0.07589996 0.781546 0.5702299
000220 2d a8 08 3f e4 bd e7 3e fe 91 90 3e f2 c5 5a 3e
       0.53381616 0.45262063 0.28236383 0.21364573
000230 0e e1 aa be fa 38 f5 be 9c 09 0e bf 09 bd de bd
       -0.33374828 -0.47895032 -0.5548341 -0.10875899
000240 8a 4f be 3e 15 18 08 3f ca a5 6d bc d1 f6 82 3e
       0.37170058 0.53161746 -0.014504859 0.2557893
000250 17 68 33 3f 7f 66 f6 3b 69 38 33 bf 9a 24 6b be
       0.70080703 0.0075195427 -0.7000795 -0.22963181
000260 b9 c7 ad 3e 67 18 ce be ec 91 6a bf 90 ab 80 3e
       0.3394144 -0.40252993 -0.9162891 0.25130892
000270 ab a7 93 be 82 8c 00 bf b9 2c 0e 3e 45 ec 6a be
       -0.28838858 -0.502144 0.13884248 -0.22941692
000280 a6 10 96 3e 1a d6 67 be 45 c8 a0 be bf 08 32 be
       0.29309577 -0.22640267 -0.31402794 -0.17386149
000290 12 f9 fe be 3e 89 c3 3e 19 c0 7c be 9c 7b 0f be
       -0.497994 0.38190645 -0.24682654 -0.14011997
0002a0 ad ea 07 bf 1c 2a 9c be 23 70 50 3f 55 63 ad bc
       -0.5309246 -0.30500877 0.8142111 -0.02116553
0002b0 e5 a8 aa 3e 4c ca bf 3e d0 54 a1 be 82 62 40 3e
       0.3333198 0.37459028 -0.3151002 0.18787578
0002c0 93 03 b1 3e ad b9 fc bd 41 7f 52 3e 39 b6 d9 bd
       0.3457304 -0.12340102 0.20556356 -0.10630459
0002d0 2d dc c8 3e 8d 4d a8 be 83 95 3b 3c 12 a9 05 3f
       0.3923048 -0.32871667 0.011449221 0.52211106
0002e0 78 4c 39 bf 8a fd 16 bd 8b 9d 90 3e 4b 97 e6 3d
       -0.7238231 -0.036862887 0.28245196 0.112593256
0002f0 b9 04 18 3e 3e 64 5c 3e 13 23 04 be 08 2d 92 bd
       0.14845552 0.21522614 -0.12904005 -0.07137495
000300 62 0d b5 be 4a 53 bc be 05 ef 32 be 0a d7 89 bd
       -0.35361773 -0.36782295 -0.17473991 -0.067304686
000310 d9 c2 00 3f 58 bb 18 3e b6 82 1d bf ca d1 e5 bd
       0.50297314 0.14915216 -0.61527574 -0.11221655
000320 83 b4 74 be b7 4a 22 3d c4 ed 7c 3e 11 d5 14 be
       -0.23896985 0.039622035 0.24700075 -0.14534403
000330 d2 e4 58 be 84 f0 9d 3e 19 9d 30 3e c5 43 ad 3e
       -0.21181038 0.3084756 0.17247428 0.33840767
000340 8a e5 b1 be 76 f2 74 3e 52 51 a9 bc d0 4f 9b 3e
       -0.34745437 0.23920617 -0.02066866 0.3033433
000350 21 a4 0a 3e b2 c9 8f be 5f f6 22 bf 84 7f 84 3e
       0.13539173 -0.2808357 -0.6365718 0.25878537
000360 f4 34 91 3e 16 52 c3 be 22 1a 9c bd e0 01 ee bd
       0.28360713 -0.38148564 -0.07622172 -0.116214514
000370 6b a3 9b 3d 61 8b 10 be 0e 29 4d 3f 56 60 1b 3e
       0.07599529 -0.14115669 0.8014077 0.15173468
000380 5c 84 a9 3d f4 94 f8 bd fb 2f 3c bf 98 29 ed be
       0.08277199 -0.121377856 -0.7351071 -0.46320796
000390 45 f6 3b 3f 48 04 5f be 2b 5c be be 1f 92 af be
       0.7342265 -0.21778977 -0.37179694 -0.3429117
0003a0 2b 56 15 be 30 1e 0e 3e 3e b1 2c be e1 04 93 3e
       -0.14583652 0.13878703 -0.16864488 0.2871466
0003b0 7c 5b 04 3e 86 a9 d2 3d 00 2d dd be 05 65 a0 be
       0.12925524 0.1028624 -0.43198395 -0.31327072
0003c0 36 37 a9 be ac 2d 7d 3e 16 4f dd be 17 67 a4 be
       -0.33049935 0.24724454 -0.432244 -0.321099
0003d0 ba d2 93 bb ee 65 e8 3d 00 0f 60 3f cf 2c 0b 3f
       -0.0045112045 0.113475665 0.8752289 0.5436525
0003e0 db 25 07 bf 89 26 99 3e fd 92 49 bd 5b db 53 3e
       -0.5279214 0.29912212 -0.049212445 0.20689146
0003f0 a0 28 a8 3d 59 58 42 be 65 16 f9 3e 56 db d7 3e
       0.082108736 -0.18979014 0.48649898 0.42159528

layer1.bias f4 [128]
000000 08 e9 c4 be c7 bd f2 3e 71 0c 3d 3f 53 f6 ae be
       -0.3845904 0.47410414 0.7384711 -0.34172305
000010 08 89 de 3e ab e5 93 be 64 8a 16 3f bb ef f8 3e
       0.43463922 -0.2888616 0.5880492 0.486204
000020 a4 d2 f0 3d 7a e1 ef 3e 8a c7 06 3f 33 3e 53 be
       0.117589265 0.46851712 0.5264822 -0.20629196
000030 c0 6b 39 3f d7 0d c6 be 45 73 d7 3e 44 b7 80 bc
       0.7243004 -0.38682434 0.4208013 -0.015712388
000040 2d d7 e7 bd 16 1b b1 3e 22 9c dd be d2 16 c4 be
       -0.113203384 0.34590977 -0.43283182 -0.3829866
000050 6d 1d 32 3f c8 17 35 3f ce be 28 3f 03 88 29 be
       0.6957615 0.7073941 0.65916145 -0.1655579
000060 2e ea 2d be a4 22 07 bf 53 96 3b 3c 93 6d 01 3f
       -0.16983864 -0.5278723 0.011449414 0.5055782
000070 3f 93 24 3f 00 13 95 3e d2 cc b4 3e 78 8d ee 3e
       0.6428718 0.29116058 0.35312515 0.46592307
000080 00 bf 01 3f e9 af b9 be 9a c2 06 3e 1f 56 66 be
       0.5068207 -0.3626702 0.13160172 -0.2249379
000090 97 5c 29 3e da 04 82 be 66 cf d7 3e 64 be 0a 3f
       0.16539226 -0.25394326 0.4215042 0.54196763
0000a0 a0 40 d7 3e 14 af ef 3e 16 5b 08 be d7 c1 3d be
       0.42041492 0.46813262 -0.13315997 -0.18530975
0000b0 5f 16 c0 be dc 8b 5d be 7c cb 59 be 6d c8 02 3f
       -0.37517068 -0.21635383 -0.2126903 0.51087075
0000c0 8a 74 35 3f 72 54 0b be 5f 16 bc 3e 63 2c 0a 3f
       0.7088095 -0.13606432 0.36735818 0.5397398
0000d0 c8 0d 0e 3f 99 e2 04 3f a1 ec ff 3e 3a a0 42 be
       0.5548978 0.5190826 0.4998522 -0.19006434
0000e0 5e c5 65 3e ef 35 b4 be 00 89 28 3f 45 71 0d bf
       0.22438571 -0.35197398 0.65834045 -0.5525096
0000f0 f8 1a 4d 3f 76 fe 9f be 23 46 36 3f 93 1d d5 be
       0.80119276 -0.31248826 0.7120077 -0.41624126
000100 f3 04 c4 be 9a e0 04 3f d4 a6 1c 3f a2 ca d4 be
       -0.38285026 0.51905215 0.6119206 -0.41560847
000110 fa 7c 00 bf ab 1c 2b 3f 26 76 af be cb 00 e5 3e
       -0.501907 0.6684062 -0.34269828 0.44727167
000120 d5 02 35 3e ba 4b c3 be ac 91 c7 3e a5 e6 b5 3e
       0.17676862 -0.38143712 0.38978326 0.3552753
000130 c1 76 aa be a4 97 21 3f a0 e9 b8 be ce 3a 83 be
       -0.33293727 0.6312201 -0.36115742 -0.25630802
000140 9c eb 06 3f cc e8 c9 bd 76 e4 32 3e 04 01 1e 3f
       0.5270326 -0.098588556 0.17469963 0.617203
000150 c5 bf fa be 67 27 2d 3f 70 02 c1 be 9c 4c 3a 3c
       -0.48974434 0.6763825 -0.37697172 0.011370804
000160 4a 12 e1 3e c7 a1 0c 3f 7f fb ea 3e ce 62 49 be
       0.43959266 0.5493435 0.45895 -0.19666597
000170 aa 96 40 3e 24 7b a5 3e 4a 0f 37 3e 65 2e 20 3f
       0.18807474 0.3232051 0.17876926 0.6257079
000180 bd fc 9b bd 36 f3 10 bf 90 c2 1c 3f 1a 93 dd 3e
       -0.076165654 -0.5662111 0.6123438 0.43276292
000190 75 c4 72 3e 86 1c 9a 3d 49 58 23 3f eb 28 5c be
       0.23707755 0.07524972 0.6380659 -0.21499984
0001a0 47 02 cc be 4c f9 e4 3c 46 da 22 3f 80 f1 d5 3e
       -0.39845487 0.027950905 0.6361431 0.41785812
0001b0 25 c9 eb 3d 39 61 36 3f 8c de 09 bd 6c c0 d4 be
       0.11512975 0.712421 -0.033659503 -0.41553056
0001c0 51 bc 26 3f b8 58 55 be 3c 41 10 3f 99 a6 24 3f
       0.651311 -0.20834625 0.5634954 0.6431671
0001d0 c3 09 09 3f 25 3a 79 be 0d 08 b6 be a6 0d af 3e
       0.5353052 -0.24338587 -0.35553017 0.341901
0001e0 3c a8 e9 3e 01 ab a6 be e7 af cf be 04 70 55 3c
       0.45636165 -0.3255234 -0.4056389 0.013027195
0001f0 6e 3f 55 be cf 19 8c be f6 c7 2f 3f ac 45 82 3e
       -0.20824978 -0.2736344 0.6866449 0.2544378

layer2.weight f4 [128, 128]
000000 fa b4 3c bd db b9 aa 3d 6f d2 84 3e 86 f6 21 be
       -0.04607103 0.0833623 0.25941798 -0.15816697
000010 83 2a 7d 3e 1b 83 b1 bd 57 ec 0b 3e 4d 51 ab 3e
       0.24723248 -0.086675845 0.13664375 0.33460465
000020 e5 9f 1e 3e 77 17 39 3e 4f 46 ab 3e f2 d8 57 bc
       0.15490682 0.18075357 0.3345208 -0.013174282
000030 2d 82 86 3e 02 81 53 3c ea 13 38 3d 20 f8 8d be
       0.2627119 0.012909176 0.044940867 -0.27728367
000040 c6 c9 b7 bc 4c b2 9b 3e a1 6c af 3d a6 26 59 bd
       -0.02243508 0.30409467 0.08565641 -0.053015374
000050 8b 64 41 3e 9d f2 8f 3e cb 6d 59 3e fe b1 03 bf
       0.1888601 0.28114787 0.21233289 -0.5144347
000060 01 15 ae 3d 3b 3f 01 be 7c d1 5c 3d 4a 60 a1 3e
       0.085001 -0.12621777 0.053910717 0.31518775
000070 bb 03 f3 3d 1b 40 45 3d 27 47 8e 3d 7b 65 48 3e
       0.11865946 0.04815684 0.06947165 0.19569962
000080 c2 12 64 3d 04 bd 4f be 1b 18 20 3e 6b c2 e1 3d
       0.05568195 -0.20286947 0.15634196 0.110234104
000090 eb c0 4d 3e f6 78 74 bd 12 58 63 3e 58 40 a3 3e
       0.20093124 -0.05968567 0.22201565 0.31885028
0000a0 a1 b1 68 3e a3 94 d5 3d 32 5a a7 bc bb 47 72 3d
       0.2272401 0.10428741 -0.02042875 0.05915044
0000b0 67 fd 2e 3d f7 7a 34 3d 82 f8 94 3e f2 3a 8a 3e
       0.042722132 0.04406258 0.29095846 0.26998097
0000c0 fa dc 41 3e a8 b1 96 bd 69 94 8c 3e 0e 0a 8e 3e
       0.18931952 -0.07358104 0.27456978 0.27742046
0000d0 41 76 36 3e d2 0f 3a 3e 94 da 46 3e 9e 6d 39 be
       0.17818548 0.18170097 0.19419318 -0.18108222
0000e0 84 10 38 bd 6d c5 98 be bc 64 73 3e 0b 20 8d be
       -0.044937626 -0.29838124 0.23768896 -0.2756351
0000f0 54 ef 7e 3d dc aa 46 be 6f 2f 22 3e b7 ca 49 bc
       0.06223996 -0.19401115 0.15838407 -0.012316397
000100 7d 2e 19 3d ef 17 45 3e b4 37 af 3e 1b 9c 50 be
       0.03739785 0.19247411 0.34222186 -0.2037205
000110 36 ec 1e be 22 f3 6b 3e cf 9a f3 bd 21 6b 3b 3e
       -0.15519795 0.23041967 -0.11894762 0.18302585
000120 cf ac 85 3e 6f ed 1a 3d 98 0d ab 3e c3 68 ca 3c
       0.26108405 0.03782409 0.3340881 0.024708157
000130 c4 db ee bc 95 25 58 3e d0 f4 c9 3c dd ac b8 3c
       -0.029157527 0.21108086 0.024652869 0.022543365
000140 98 7e 02 3e 41 22 8d 3a 21 be 2a 3d 84 c9 9a 3e
       0.12743604 0.0010767655 0.041685227 0.3023187
000150 72 78 96 be 27 20 16 3e c9 a5 7b be 9c ef ef 3d
       -0.29388767 0.14660703 -0.24574961 0.11715624
000160 e1 23 45 3c 83 b0 1c 3e 37 fc 81 3e 6f e6 5c be
       0.01203248 0.15301709 0.25387737 -0.21572278
000170 7e 25 28 3e 1d ff a2 3e cc 4a 89 3c e6 6d 68 3e
       0.16420552 0.3183526 0.016759299 0.22698173
000180 3b 86 06 3d ac 7d a3 bd 86 1e 58 3e c6 de 1b 3e
       0.032842856 -0.079829544 0.21105394 0.152217
000190 88 d1 97 3d ee ef b7 bd f8 9d 10 3e 0d 9a 89 be
       0.07413012 -0.0898131 0.1412276 -0.26875344
0001a0 01 7c 47 3e 22 3e 11 3e a8 9f 3a 3e 14 08 18 3e
       0.19480897 0.14183858 0.18224967 0.14846832
0001b0 4b 63 d8 bd 15 7c 91 3e c9 66 7b 3d 25 7e cb 3c
       -0.10565814 0.2841498 0.06137732 0.024840424
0001c0 87 00 2b 3e 23 d8 3e 3d cb 78 8e 3e 5e a9 9d 3e
       0.1669942 0.046592843 0.27826533 0.3079328
0001d0 dc 2a 92 3c 55 83 05 be ce 35 e7 bd 7d 3e 50 3e
       0.017842703 -0.1303838 -0.11289559 0.20336337
0001e0 6f e0 8e 3d 0a 3f ea bc 27 0a 09 be 9b 20 40 3e
       0.06976401 -0.028594512 -0.13382779 0.18762438
0001f0 3a 26 9a bd b4 83 9a be 04 63 40 3e d0 f6 92 3b
       -0.075268224 -0.30178607 0.18787771 0.0044849887
000200 b6 a2 49 3d 8c 06 e1 3d e1 55 85 ba 5a 26 18 be
       0.04922744 0.10987577 -0.0010172689 -0.1485838
000210 63 b4 1a 3c d1 59 a4 3a ba 69 77 bd 7d 62 31 bd
       0.009442422 0.0012538974 -0.060403563 -0.043306816
000220 f3 2d 99 bd db 1b c4 3d 69 6f e0 3c 91 42 b5 3d
       -0.07479467 0.095756255 0.027396875 0.08850587
000230 67 b0 0e bd 15 4b 05 be 3d 68 08 3e fa a2 4e bd
       -0.0348362 -0.13016923 0.13321014 -0.050448395
000240 71 e5 af bb 2d 28 91 bd 6a fd a9 3d a4 a8 f1 bc
       -0.0053679277 -0.07087741 0.08300288 -0.02949936
000250 b9 44 91 bc 11 75 a7 3d 88 1d 03 be 82 42 2c be
       -0.017732965 0.081766255 -0.12804234 -0.16822246
000260 60 91 66 3d 91 e3 34 3d 6a 15 c0 bd da 32 1e 3e
       0.056290984 0.044162337 -0.093790844 0.15449086
000270 78 d5 44 3c d5 60 86 bd a8 86 29 3e 77 a7 c8 bc
       0.012013786 -0.06561438 0.16555274 -0.024493916
000280 11 b4 a4 3d a3 ad c0 bd f8 1c 1f 3d 72 34 d9 3d
       0.080421574 -0.094081186 0.038845986 0.10605706
000290 7b 0b 17 3e 90 13 80 be 07 b7 84 3d fb 96 b6 3d
       0.14750473 -0.25014925 0.06480222 0.08915516
0002a0 60 86 34 3d 23 76 f0 3d 81 88 e3 bc 38 42 f4 3c
       0.044073462 0.11741283 -0.027775051 0.029816732
0002b0 8b 09 8c bd 43 b7 c3 3d c7 d2 7e be b5 33 eb 3c
       -0.06837758 0.09556439 -0.24885093 0.02871118
0002c0 32 42 55 3c 96 f5 dc bc 43 38 aa 3d aa 1e 25 be
       0.0130162705 -0.026972573 0.08311512 -0.16124979
0002d0 d5 68 af bd 52 b0 7b bd 2e bc ed 3c 29 73 b0 3d
       -0.08564917 -0.06144745 0.029020395 0.08615715
0002e0 ca a7 99 3c 9f 36 c8 bd 09 f6 ea bc a6 08 b5 3d
       0.018756766 -0.09776043 -0.028681772 0.0883954
0002f0 d6 5c ce 3d 10 68 be bd 1b c1 18 3d 80 63 81 3c
       0.10076301 -0.09297192 0.037293535 0.015794516
000300 c7 5a 65 3e 92 75 18 bc c2 ec b7 bc 18 c6 ba bd
       0.2239791 -0.009305375 -0.022451762 -0.09119815
000310 45 1b 14 be b6 e8 e8 3c 9a d0 46 3d 43 de 33 bd
       -0.14463528 0.028431278 0.04853878 -0.043913137
000320 7c d9 b3 3d f7 36 02 bd 0a a5 d3 bc da b5 8f bd
       0.08781716 -0.0317907 -0.025835533 -0.07017107
000330 14 e1 cf bc 9e 6f 07 bb ad ee 72 bc cd 1c b2 3d
       -0.02537588 -0.0020665894 -0.014827413 0.086968996
000340 86 6c 70 3c 6d f4 4e 3e 76 96 0d 3e 26 61 a4 bd
       0.0146743115 0.20210429 0.13826928 -0.08026342
000350 32 a1 b4 3c 65 28 04 bd 3e 5a 45 bd 08 d8 dc bd
       0.02204952 -0.032265086 -0.048181765 -0.10783392
000360 24 85 1a 3e c6 c9 e0 3c fd 26 5e bd fc 8f 5d bd
       0.15089852 0.027439963 -0.0542364 -0.054092392
000370 15 84 c4 bd 75 bf cc 3d 53 72 bc 3d 5d 43 46 3d
       -0.09595505 0.09997455 0.09201493 0.048404086
000380 a3 c7 c8 3c 04 ff dd bd 83 82 b9 3d f4 3e 4a bd
       0.024509257 -0.10839656 0.09058096 -0.049376443
000390 c5 e2 a7 3d e9 8e 32 3e 8f cf 4a bd db 76 61 3e
       0.0819755 0.17437328 -0.04951435 0.22017996
0003a0 d2 53 b6 3d e2 c6 54 3e 7b b0 ac bd 08 29 23 3e
       0.08902706 0.20778993 -0.084320985 0.15933621
0003b0 1c 65 b3 3d 9f 02 d0 bc a1 f2 26 3c 00 de e5 3d
       0.087595195 -0.025391875 0.010189683 0.11223984
0003c0 22 e5 4b 3d 31 ee e6 3c dd a7 97 bd 90 d6 f9 3c
       0.049779065 0.02818975 -0.07405064 0.03049782
0003d0 db 95 4d 3b dd c3 d0 bd bd 1b 37 3c 99 aa 67 3d
       0.0031369838 -0.10193608 0.011176047 0.05655918
0003e0 f7 4d 5d bc ad 89 ef bd eb 2c c5 3d 8a db 83 3d
       -0.013507358 -0.116961814 0.09627708 0.06438358
0003f0 ba d6 a1 bd 59 b6 a6 3d 37 fb 3d bd 7b f2 d8 3d
       -0.07902284 0.08140249 -0.046382155 0.105931245

layer2.bias f4 [128]
000000 da f8 2a 3e bf 1e 27 bd ea cd fe 3d 56 2b 28 3e
       0.16696492 -0.040800806 0.12441619 0.16422781
000010 b7 fd 86 3d 98 36 b0 bc fa d2 81 bd 3d ba 82 3d
       0.06591361 -0.021510407 -0.06339069 0.063831784
000020 a9 ea e9 3c 05 cd 5d 3d 7b ad a5 bd 30 d3 9a 3d
       0.028554277 0.0541506 -0.080897294 0.07559812
000030 fa 80 5e 3d 20 56 8c bd bc 3e 26 3d e1 1a a0 bd
       0.05432222 -0.068523645 0.040587172 -0.07817627
000040 b7 92 d2 3d 53 55 31 3d 22 b5 f2 3d 12 a1 7c 3e
       0.1028189 0.043294262 0.118509546 0.24670818
000050 79 7d 48 3d ea d8 ba 3d 20 d0 1d bd 52 11 8c bd
       0.048947785 0.09123404 -0.03852856 -0.06839241
000060 15 da 4b bd 26 f2 6c 3d db f9 88 bd eb 64 31 3b
       -0.049768526 0.05784812 -0.06688281 0.0027068208
000070 91 07 d3 3d 5d 8a 0a 3e dc 12 88 bd 54 99 37 3e
       0.103041776 0.13529344 -0.06644222 0.17929584
000080 19 78 07 3d 41 e9 89 bc 0b 41 87 bd 75 4f 20 3e
       0.03307352 -0.016834857 -0.06604203 0.1565531
000090 6a 94 c6 3d 83 05 8e bd 8f 18 64 bd 64 bc 27 3c
       0.096962765 -0.06934645 -0.055687483 0.010237787
0000a0 a0 cc db 3d d0 c6 5e 3d 35 03 b8 bc de 06 bd 3d
       0.107323885 0.05438882 -0.022462467 0.092298254
0000b0 9c 9e 66 3e 93 63 f9 3d b8 09 32 3d 2e d1 f2 bb
       0.22521442 0.121771954 0.0434663 -0.00741019
0000c0 eb 03 28 3e 12 50 1c 3e d7 ac 73 3d c8 f6 01 3e
       0.16407745 0.1526492 0.059491005 0.12691796
0000d0 e6 f2 a8 3d 7c 4d a5 bd 1e 14 be 3d 38 04 0e 3e
       0.08249454 -0.080714196 0.09281181 0.13868797
0000e0 c9 29 3b 3e ab 91 25 bd 20 28 24 3e 99 b0 4b 3d
       0.18277659 -0.040422123 0.16030931 0.049728964
0000f0 11 1d 62 3e 2c ce 52 3e c4 c9 f9 bc 8c 2b 72 bd
       0.220814 0.20586461 -0.030491717 -0.05912356
000100 85 b7 1b bd f7 88 42 3e 59 97 2c 3e 5c 9c 90 bc
       -0.038016815 0.1899756 0.1685461 -0.017652683
000110 1a 97 13 3e 20 3b a0 3b 4a 27 6d 3e 9c 0c f4 3d
       0.1441311 0.0048898607 0.23159519 0.119164675
000120 bd 0b cf bd 32 39 7f 3e a0 e9 b5 3d 95 ae bc 3d
       -0.10109661 0.24924162 0.08882451 0.092129864
000130 d2 3e 18 3e f0 db 3e bd 8a 84 31 3e 72 ad 95 3b
       0.14867714 -0.046596467 0.17335716 0.0045677954
000140 14 49 8f bd 2e 4a 02 3e 60 c6 0c 3d 7c 18 5d bd
       -0.069963604 0.1272361 0.034368873 -0.05397843
000150 5e 3c 14 3e 5c d8 33 3e 7c b1 e0 3d ec 10 da bb
       0.14476153 0.17563003 0.109713525 -0.0066548493
000160 37 7e f2 bc c8 1a 0a 3e a1 ae 3d 3d d6 a1 87 3e
       -0.0296012 0.13486779 0.046309117 0.2649066
000170 47 2a 3e 3e 8c a2 02 3e fb 88 b0 3d 23 7a 1d 3e
       0.18570815 0.12757319 0.08619877 0.15378623
000180 e7 7b 0d be 20 a3 2d 3d 46 c7 dc bb 91 74 ac 3c
       -0.13816796 0.042391896 -0.0067376224 0.021051677
000190 af b8 cd 3d 5f 0a 8e 3c ce 06 85 bc 9a f8 63 3e
       0.10044991 0.01733893 -0.016238596 0.22262803
0001a0 83 f2 a3 bd fa 7a 62 bc 76 08 98 bd d8 05 43 3e
       -0.0800524 -0.013823265 -0.07423489 0.19045198
0001b0 a5 27 9d 3d c5 5b 2f 3e b2 43 03 bd ce 54 52 3d
       0.07673577 0.17124851 -0.03204698 0.051350407
0001c0 d5 0b 83 3e dd 56 09 3e 5c 1d 5c 3e 06 ef db 3d
       0.25594965 0.13412042 0.21495575 0.107389495
0001d0 08 46 b9 3c a8 45 18 3e e7 85 37 3e 7d c7 58 bc
       0.022616401 0.14870322 0.17922173 -0.013231155
0001e0 7e 26 07 bc 7b e3 ed 3d c1 1e 98 bd 27 49 3e bd
       -0.008248923 0.11615654 -0.07427741 -0.046456482
0001f0 01 ca 21 3e f7 a5 88 3e e6 ac 18 3e 45 12 78 3e
       0.15799715 0.2668912 0.14909706 0.2422572

layer3.weight f4 [2, 128]
000000 d5 a4 97 3e 46 84 07 be 41 1a 8b 3e d6 de 8e 3e
       0.29617944 -0.13234052 0.27168468 0.27904385
000010 18 66 8d 3e d7 0f 98 bc cb 19 65 bd 5a 97 40 3e
       0.27616954 -0.01856224 -0.0559328 0.18807736
000020 c4 99 99 bc 48 75 af be 83 50 0d be b9 38 87 3e
       -0.018750079 -0.34269166 -0.13800244 0.26410463
000030 e1 13 28 3e 16 ef 5a bd ba 45 e3 bb 08 da 81 bd
       0.16413833 -0.053450666 -0.0069358023 -0.06340414
000040 7a a0 d2 3e 19 af a4 bd 29 db 86 3e 58 c1 47 3e
       0.4113806 -0.0804121 0.2633908 0.19507349
000050 ee 18 50 3d 19 47 a2 be 92 fe 19 3d 5f e5 09 3c
       0.050805025 -0.31694868 0.037596293 0.008416503
000060 d3 82 e7 bd 97 1d 9a bd 78 e3 9d bd f3 98 db 3d
       -0.113042496 -0.07525175 -0.07709402 0.10722532
000070 d8 10 a4 3e 12 5b b9 3e b0 87 96 bd fe 8b ad 3d
       0.320441 0.36202294 -0.07350099 0.08473967
000080 c7 0b 3f be 2c a6 fc 3d 81 9f 38 be d0 00 89 3e
       -0.18656836 0.12336382 -0.18029596 0.26758432
000090 bf f7 80 3e a6 09 6a 3d f6 b3 64 3d 46 f8 f8 bd
       0.25189015 0.057138108 0.055835687 -0.121567294
0000a0 37 75 bf 3e ba b2 b7 bd 0d fa 5f bd fb cc 82 3e
       0.37394115 -0.08969636 -0.054681826 0.25547013
0000b0 3e cb 67 3e f0 8a 14 3e 64 5f bf be 75 54 28 be
       0.22636124 0.14506125 -0.37377465 -0.16438468
0000c0 29 2d 5c 3e b7 de 48 3e a9 ce 00 be 7f 12 6c 3e
       0.21501602 0.19616209 -0.12578835 0.2305393
0000d0 81 85 b0 bc 1e 5b 80 3c 1f 48 cd 3e 3c 00 97 3e
       -0.021548035 0.015668448 0.40094087 0.29492366
0000e0 a7 31 9f 3e c5 f8 92 3e 9c d9 27 3e 6c 2c 42 bd
       0.3109257 0.2870542 0.16391605 -0.047405645
0000f0 81 94 8b 3e b6 83 b8 3e 85 13 a5 3d 60 81 98 bd
       0.27261737 0.36037987 0.08060364 -0.07446551
000100 21 f3 97 be f6 39 80 3e 49 e3 8d 3e d5 1f c1 bc
       -0.2967768 0.2504422 0.27712467 -0.023574749
000110 90 60 a5 3e c7 d2 7e bd 57 64 45 3e 93 20 89 3e
       0.32300234 -0.06221273 0.19276558 0.26782665
000120 02 0c f1 be 3f 05 88 3e a2 60 bb be 31 09 9d 3e
       -0.47079474 0.26566502 -0.36597162 0.30671075
000130 12 c7 5b 3e 8a 24 52 3d 06 49 81 3e 5a ab 88 bd
       0.21462658 0.051304378 0.25251025 -0.06673308
000140 4a 03 9a be 7b 6c 8b 3e 86 d9 62 be af c9 88 3d
       -0.30080634 0.27231202 -0.22153291 0.06679093
000150 56 ae 5c 3e 40 36 87 3e 52 3a 42 3e 08 15 9c bc
       0.21550879 0.26408577 0.1896756 -0.019052997
000160 e6 e7 77 be 86 53 8e 3e 10 fe b9 be aa 38 61 3e
       -0.24209556 0.27798098 -0.36326647 0.21994272
000170 90 9b 6c 3e ee ad 10 3f 1d ab c7 3e 32 7c 9d 3e
       0.23106217 0.56515396 0.38997737 0.30758816
000180 36 2b da 3c a3 f2 82 3d 28 91 7d be f8 2e 21 bd
       0.026631933 0.063939355 -0.24762404 -0.039351434
000190 4d a9 cc 3e 0a ca 08 be 17 b4 3d 3d d5 9b 64 be
       0.39972916 -0.13358322 0.046314325 -0.2232507
0001a0 e0 75 98 bd a1 96 a7 be 05 d7 74 bd 69 24 53 3e
       -0.07444358 -0.32732108 -0.05977537 0.20619358
0001b0 48 69 9e 3e 2f 81 81 3e ad 77 22 bd c2 5d 28 bb
       0.30939698 0.25293872 -0.039664913 -0.002569065
0001c0 61 fb a7 3e 8f de 58 3e c8 fd 2d 3e 45 86 b0 3e
       0.32808974 0.2117865 0.16991341 0.3447744
0001d0 b7 d9 8d bc 8c 41 87 3e 0d a5 82 3e 3a 8d 02 bf
       -0.017315729 0.26417196 0.2551655 -0.50996745
0001e0 56 69 04 3c 9c 6c c5 3e b8 87 d2 be fa 81 5f bd
       0.008081755 0.38559425 -0.4111917 -0.054567315
0001f0 19 3d 54 3e c9 2c 9b 3e f5 17 df 3d a0 21 96 3e
       0.20726432 0.30307606 0.10893241 0.2932253
000200 39 b9 53 3e 33 df 79 3e 5c a5 c4 3e d1 a2 a3 3e
       0.20676126 0.2440155 0.3840741 0.31960157
000210 b8 01 c3 3e ac fb 26 3d 57 4d cd be ee a9 10 3d
       0.3808725 0.040767357 -0.40098068 0.035318308
000220 50 ea 87 bd 75 2b 62 3e e7 df e9 be 0a 54 ae 3e
       -0.066364884 0.2208689 -0.45678636 0.34048492
000230 0e ad 8e be 0d be 65 3c fe 03 91 bd 29 47 8c bd
       -0.27866405 0.014022362 -0.070808396 -0.0684951
000240 99 42 8e 3e 76 88 49 bd 84 1c 67 3e dc 43 8c 3e
       0.27785185 -0.049202405 0.22569472 0.27395523
000250 85 ea 8b 3d ac 4c d7 3d 02 2f 8c bd 20 2d 81 be
       0.068318404 0.10512671 -0.068449035 -0.2522974
000260 45 8a 50 bc 68 21 c4 bd 45 96 1c 3d 56 80 10 3f
       -0.0127282785 -0.09576684 0.038229246 0.56445825
000270 dd cd 0e 3d 60 51 99 3e 07 bc 7e bd e7 2a 98 3e
       0.034864295 0.29944897 -0.062191036 0.29720232
000280 26 a7 46 bd f1 40 10 be 6a c7 37 be 7f 12 5e 3e
       -0.04849925 -0.14087273 -0.17947164 0.21686743
000290 4c 29 a5 3e ec 95 ab 3d cc db d3 bc ac 92 5a be
       0.3225807 0.08378205 -0.025861643 -0.21345013
0002a0 0c 04 86 3e 3b 9f 98 3b 9c 95 44 bd 99 a1 7f 3e
       0.26174963 0.0046576536 -0.04799424 0.24963988
0002b0 27 25 96 3e b0 55 b5 3e 9b bc 7d be ae d2 b6 be
       0.2932522 0.35416937 -0.24778979 -0.3570761
0002c0 2a 0e cc 3e fa 79 8a 3e 31 84 a2 bc 6c 14 aa 3e
       0.39854556 0.27046186 -0.019838424 0.33218706
0002d0 90 32 6c be 27 bd b9 3c e6 f7 9e 3e 90 35 8e 3e
       -0.23066163 0.022673203 0.31048506 0.2777524
0002e0 48 d4 dd 3d 6a 42 3f 3e e3 5d 54 3e 3e 23 19 bd
       0.10831505 0.18677679 0.2073894 -0.037387125
0002f0 3b db a8 3e 06 f3 70 3d 56 1c 21 bd 0c 11 49 bd
       0.3297976 0.058825515 -0.039333664 -0.049088523
000300 5d be 96 3d a4 a5 1c 3e c6 ea af 3e fd 8a c2 be
       0.07360528 0.15297562 0.34358805 -0.37996665
000310 30 c4 04 3e cc 4b ff bc 32 20 71 3e c4 b2 43 3e
       0.12965465 -0.031164072 0.23547438 0.19111162
000320 7b 83 58 be 02 6b 8b 3e 13 a1 9c 3e b8 23 6e 3e
       -0.21143906 0.27230078 0.3059164 0.23255813
000330 4d f9 a7 3e 40 2a 32 3c 02 4a 2c 3e ad 53 9e 3d
       0.3280739 0.010874331 0.16825107 0.07730804
000340 21 df cd 3d 2f 34 90 3e 23 4d 10 be c1 91 a1 3d
       0.10052324 0.28164813 -0.14091925 0.078891285
000350 66 27 aa 3e c2 8d 88 3e c2 e0 9d 3e 4c f5 c5 3b
       0.33233184 0.26670653 0.3083554 0.0060412046
000360 85 ce 3f 3c 9a 4d a2 3e c8 83 86 be dc d9 24 3e
       0.011706953 0.3169983 -0.26272416 0.16098732
000370 c5 84 a0 3e c2 8e 28 3e 06 5e 42 3e a3 28 b0 3e
       0.31351295 0.16460708 0.1898118 0.34406003
000380 ad d3 c7 be 91 27 19 be 4f 6d 20 3d 80 26 f2 bc
       -0.39028683 -0.149565 0.039166745 -0.029559374
000390 2e 13 8a 3e 73 83 76 be 6a e0 9c bc ac 03 da 3e
       0.26967758 -0.24073581 -0.019149978 0.42580926
0003a0 19 d4 8d 3d 02 51 85 be 54 51 52 ba ca f8 c5 3e
       0.0692522 -0.26038367 -0.0008022983 0.38666373
0003b0 11 0d 80 3e ba 66 6d 3e c4 85 94 bd 94 02 12 bc
       0.2500997 0.23183718 -0.07252076 -0.0089117475
0003c0 be 3c 67 3e 63 d5 8c 3e a4 48 8f 3e ac 4d 53 3e
       0.22581765 0.2750655 0.27985108 0.20635098
0003d0 ba bc 8e 3d fe 2c 97 3e c6 8d 02 3e 2d fd df be
       0.069695905 0.29526514 0.12749395 -0.43747845
0003e0 f6 71 48 bc 0e a2 79 3e 53 53 c7 be 3d 9a 8a 3d
       -0.012234202 0.24378225 -0.3893076 0.067677
0003f0 f7 5c 67 3e 53 95 78 3e b1 54 ce 3e 94 25 39 3e
       0.22594057 0.24275713 0.4029899 0.18080741

layer3.bias f4 [2]
000000 98 04 04 3e 0f bf b1 3d
       0.12892377 0.0867902
