example_5_online_verification/predictors/alt_predictor.pth (torch, 122759 bytes, 6 tensors)

lstm.weight_ih_l0 f4 [200, 81]
00000000: 3f82 edbd f334 4039 cb09 923d 26ad fabd
00000010: 9185 07be 9718 5e3d 222b 02be a57e 13be
00000020: 7cf9 24be 6500 e4bd 7e30 d2bd 7bfc 16be
00000030: 3911 5bbd a125 17bd a082 f3bd f31a 4e3d
00000040: c4ca dbbc 0917 04be 6f5f f63b 574b 023d
00000050: e8ed 3a3d bcc4 14be f70e 8cbd 97d7 66bd
00000060: a1f6 333c a122 6abd 5567 ab3d 0459 b63d
00000070: 3970 ddbc 2d73 373d f17e da3d 2059 b0bd
00000080: 1ee2 9e3d b555 5b3d 2eaf 74bd da4a 46bb
00000090: f41a e23d d3dc f53d cd3d 9bbd abdb 2c3d
000000a0: f441 d63b 6229 e33d 2c8b e93c 4a44 323c
000000b0: d567 d0bb 61c0 9bbd 751e 1e3c 41e2 f7bc
000000c0: 8758 053e 24ec 813c a0c8 debc 0c33 143e
000000d0: 2a39 b43d 1dc6 31bd 3bd4 f13b 7a2e 8c3d
000000e0: 72eb bb3c f853 ac3d 88a0 b73d f790 dabd
000000f0: fbab 9bbc b2a7 1c3d 1feb 5fbd e869 89bd
00000100: ea43 ec3d 2792 c8bc 8fd8 15bd e95c 99bd
00000110: 497d 6a3d 0ca3 d83d 0f17 053e 1fd0 e13d
00000120: bfc9 75bd f679 e93c afe3 d23d a6e3 413d
00000130: 955a 57bd 3044 1c3e 33a8 58bd 715d 583e
00000140: 669c bd3d 07af 5c3d ec73 5d3b 87b9 a1bd
00000150: 143c 1bbd cd18 bcbd 5f3a 7b3d 17b8 553d
00000160: 2323 1dbd 701c f6bd b2f0 cb3d 1861 283c
00000170: 7b4f bcbd bbc6 1ebd f030 d83d 44a5 a8bd
00000180: cf07 89bc eba7 b7bb 8ed3 173d d8e2 84bd
00000190: 0e49 45bd 81a0 c23d b61a 1bbe ecbb b03d
000001a0: 9288 c0bd c4d1 23be b63d 41bb b9d4 ac3c
000001b0: 4a57 d9bd 2d47 9fbc 966c f6bd b601 843c
000001c0: a6e2 84bd 5eb5 f3bc 8a09 bcbc f590 8b3d
000001d0: 7e99 bfbc 5f77 a5bd 6362 343d 6b69 cfbc
000001e0: 37d2 e43d 2594 993d a681 08be 7e14 c8bd
000001f0: ea51 17be 9101 cf3d e261 f73d a339 d93d
00000200: c852 33bd 5ad2 2abc af84 2ebd a737 d1bd
00000210: 6454 26bd ddcd d8bc e703 c93b 941a aabd
00000220: c000 adbd 3db9 e23d 15a9 1cbd 031b 953d
00000230: e3f6 44bd 2def 3b3d 7a88 973d b486 d4bd
00000240: ab57 ec3d 693d b83c 707c b03c ae7b be3d
00000250: bd8c 0b3e d56b 223e 1e51 473c b3f4 3abc
00000260: 23e6 d33d 9291 93bd 1da2 923c 8422 083e
00000270: cc3c 853d 511c ff3b 8c18 2abd 21e8 483d
00000280: 97d3 8fbd d95e b73d d1a6 123d df40 e93d
00000290: 711b 903d b044 123e 9cd2 7c3d 0246 aebb
000002a0: cfc9 193e 1903 2a3d d80e 7cbc 4ff2 0a3c
000002b0: a755 c53b c48f 5e3d 556c 1fbd 18f7 9abd
000002c0: 7703 d2bc 3934 b53d 3bb4 6b3c 042f 07bc
000002d0: c5d6 cfbd a6eb 2c3e db9f e53d 8064 f33d
000002e0: 5eea 4abd b9a5 a33d e3eb cb3c 95f1 203c
000002f0: 8ba6 613d df5c 863d 5b9f fabc 897a b73d
00000300: 8f7b 653d 9368 b13d 0022 1e3e ff4b 093e
00000310: c569 94bd f4cb afbd 57c1 053e ae38 c13c
00000320: c826 f6bc 42e1 133e 7617 4fbd dc06 103e
00000330: 8bc5 d73d 5193 333e d19c 6cbd 0077 2f3d
00000340: 6f7a 9fbd 9f69 363e 81ae 373d 35aa 293e
00000350: 618d fe3d 7e8f 18bd 6cc7 c83d 2c70 343e
00000360: 45d8 e13d 308e 4dbc 7e0f 5d3c f4bf 85bd
00000370: 05d9 293e 93a7 e43d d5bb 1dbc cfa5 fd3c
00000380: 5f63 973d 589e 483e a8ae 6a3d 8965 713c
00000390: 6192 d23d bc12 043e 37a3 2b3e 24e7 2cbb
000003a0: 5f47 023e 90ff 3f3d 3cd9 ec3c 4bf6 4bbc
000003b0: b371 283b 1607 8a3d e0dd 413e 1dfb 453e
000003c0: a577 993d a9ae 4a3e b492 913d f061 6abd
000003d0: ebb2 80bc 95c7 bebc 6cc9 0ebe 318b d53c
000003e0: d699 08be 804f 1dbe 351b 853d 3d6f c23c
000003f0: 6a1c 7a3a 84c1 43be 2c59 703d ff58 833d
-0.11597108 0.00018330272 0.07130774 -0.12240057 -0.13234545 0.05422267 -0.12711766 -0.1440378
-0.16110796 -0.11132888 -0.102631554 -0.14744751 -0.05348322 -0.03690112 -0.11890149 0.05031867
-0.026830085 -0.12899412 0.007518701 0.03181013 0.04563704 -0.14528173 -0.06838792 -0.056357946
0.010984094 -0.05716193 0.083693184 0.08903697 -0.027031051 0.044787575 0.106687434 -0.08610749
0.07757972 0.053548533 -0.059737377 -0.0030257017 0.11040297 0.120050095 -0.07580147 0.04220168
0.006538624 0.110918775 0.028508745 0.010880539 -0.006360034 -0.07605053 0.009650816 -0.030259253
0.13022052 0.015859671 -0.027195275 0.14472598 0.08799966 -0.043401826 0.007380036 0.06844802
0.022939418 0.08414453 0.08966166 -0.10672181 -0.019002905 0.038245864 -0.05466759 -0.06709653
0.11536391 -0.024483753 -0.03658348 -0.07488424 0.057248387 0.10577974 0.12997077 0.11026024
-0.060006853 0.028500538 0.102973334 0.047336243 -0.05257662 0.15260386 -0.052894782 0.21129395
0.09258346 0.053877857 0.0033791019 -0.07896715 -0.03789909 -0.09184418 0.061334964 0.052177515
-0.038363587 -0.12017143 0.09958018 0.010277055 -0.09194847 -0.038763743 0.10556209 -0.08234647
-0.016727356 -0.005604734 0.03706699 -0.064885795 -0.048165374 0.0950327 -0.15146908 0.08629593
-0.09401049 -0.15997988 -0.0029486245 0.021097528 -0.10612352 -0.019443119 -0.1203243 0.016114097
-0.06488542 -0.029749569 -0.022953767 0.06814758 -0.02338862 -0.08079409 0.04403914 -0.025318822
0.11172908 0.074989595 -0.13330707 -0.097695336 -0.14777341 0.10107721 0.120792165 0.106066965
-0.04378012 -0.010426128 -0.042607006 -0.10215693 -0.040607825 -0.02646535 0.0061344984 -0.083058506
-0.08447409 0.11070488 -0.038247187 0.07280543 -0.048087012 0.045882393 0.07399078 -0.10377255
0.11540159 0.02249022 0.021543711 0.09300934 0.13627906 0.15861447 0.012165336 -0.01141088
0.103466295 -0.072055 0.017899567 0.13294417 0.06505737 0.007785358 -0.041527316 0.0490495
-0.070227794 0.08953638 0.03580362 0.11389326 0.07036484 0.14284015 0.06172429 -0.005318404
0.1501839 0.04150686 -0.015384398 0.008480622 0.0060221734 0.054336324 -0.038921673 -0.07566661
-0.025636418 0.08847851 0.014386232 -0.0082509555 -0.10148386 0.16886768 0.11212131 0.11884403
-0.049539916 0.079905935 0.024892753 0.009823223 0.05509047 0.065606825 -0.030593565 0.089589186
0.056026038 0.08662524 0.15442657 0.13407896 -0.072467364 -0.08583823 0.13062035 0.023586597
-0.03004779 0.14441398 -0.050559483 0.14065117 0.10535725 0.17536665 -0.05776674 0.042838097
-0.07787024 0.17813729 0.044844154 0.16568835 0.1242931 -0.03724622 0.09803662 0.17620915
0.11027578 -0.012546107 0.013492463 -0.06530753 0.16586693 0.11164775 -0.009627302 0.030962853
0.073920004 0.19591653 0.05729547 0.0147336805 0.10281826 0.12897772 0.1676148 -0.0026382888
0.12722538 0.046874583 0.02891218 -0.012448858 0.0025702536 0.06739633 0.18932295 0.19334073
0.074935235 0.1979319 0.071080595 -0.057222307 -0.015710315 -0.023288528 -0.13944024 0.026067348
-0.13339934 -0.15362358 0.0649933 0.023734683 0.0009540977 -0.19116789 0.05867879 0.06413459

lstm.weight_hh_l0 f4 [200, 50]
00000000: 5440 b2bc 1339 a1bd 2eab 3a3d 9953 b23d
00000010: 37fd 06be 47fe 3dbd c7c5 ddbd 6d42 bebd
00000020: 41f9 3bbd 993b 853d 7b49 933d 8f22 a1bc
00000030: 7c4f 09bd b610 0d3e 2358 b2bd f638 d6bd
00000040: fed9 27be 946b a23d abeb 0abe 0cb7 393d
00000050: 6d0b 8cbd 0b46 90bd 73d5 6abd edef d03d
00000060: 015e 2fbd 606f ab3e ca18 e0ba d5a2 153d
00000070: b1f6 02be 7d05 c3bd 6f25 343e 072d 4abd
00000080: 61a5 f73d 7db3 173e db18 ddbd e8ce 8e3d
00000090: d8ed f1bd becc e5bc d004 e0bd 5654 083b
000000a0: b771 183e 5fb5 42bd 9861 903d 0abe 34bd
000000b0: cfe3 28be bda9 c7bd 07ca 353d b800 14be
000000c0: fe33 85bd 07cc c8bb c1b6 243d 6ba4 1fbe
000000d0: 3c6f fbbd 8864 d2bd 88e9 12bd e0fd cabb
000000e0: 86b4 08bc b580 dd3d f716 bf3d 02ec f63d
000000f0: f3ab 9ebc a40c 553d e77f f9bc c0ef afbd
00000100: 89b7 363d 68b5 86bd cb48 a43c 9efa f03d
00000110: 4d74 c43d b7da 173c 458e 933d 40d6 b0bd
00000120: 1900 dbbd 4485 11be 891c af3d a835 f13c
00000130: ce8a 663d 7b32 9a3d af91 a53d df3f b43d
00000140: 6f3c 68bc e888 2abd 26fe da3b ae08 ad3d
00000150: b8fd 71bc c0c0 38bd 3f22 45bd 37d4 95bd
00000160: ff13 4cbc 6267 06be f995 8f3d f134 903d
00000170: c17c 9b3d 061f 23bd f97e 03bd a8e1 0c3d
00000180: e040 fabd 5e22 ce3d a313 36bd 234c 833d
00000190: 95f0 e4bc 0ec7 3f3d f4a6 2b3d 75ea 06be
000001a0: 866e dfbd 5b6e 283b aa12 ac3d e5df e33d
000001b0: ee87 3dbe bf8f 863d eba5 19bd 3c6f 94bc
000001c0: 090f 8eba 4510 c63d 671b adbd e346 83bd
000001d0: e892 55be 5389 f93c da04 d3bd 9487 5c3c
000001e0: b09b 16be d62e 543d b74f 0abd a91c 0abd
000001f0: 934f 26be c99f 273e eaf4 473d 572c ddbd
00000200: e4fe b53d 2b3a 673d 7947 be3d eec7 96bd
00000210: d2a6 f43d 8744 323d 3650 853d 98b3 da3c
00000220: 4ea5 20bd 57a9 75bc 1012 f4bd 3083 f9bd
00000230: ca87 d8bc 63c3 1ebe 8a89 79bd d4c3 5e3d
00000240: 9dc4 26be 1406 f3bd 9048 c63c db12 0a3e
00000250: 8059 ae3c c76c a3bc 8317 1dbe 209c 0dbd
00000260: 54e4 1cbe 96da 1e3c f990 ac3d 7782 04bd
00000270: e777 d2bc a23e e3bd cfc1 1bbe 5a2f 35bd
00000280: a0c5 f43d 007d d6bd a2f4 ccbd eec3 473c
00000290: 6c0a d0bc 1eee b3bd d49a 94bc 13ff 23bd
000002a0: 4575 6d3d e6cd 523c dfb3 e8bd d0c4 babc
000002b0: 76a9 2c3e cdd2 19bc 01ed 083d 33fc f73c
000002c0: fac4 2e3c 7afe cc3c 288e 843d ae4f a13d
000002d0: 84bc e63c fb1e dc3d 76d8 9cbd 52b3 763c
000002e0: 6d83 983d f8c9 733d 2ec0 b8bd 82de c83c
000002f0: beeb 593d 3c42 8b3d cf83 c3bd 4ce1 023e
00000300: 9afe 76bd 1473 91bd 5a87 263d 9718 073d
00000310: 03e3 013c b006 5dbd 2ffb 823d 7ceb a13d
00000320: e9b1 5e3d 631a de3d ad7a 23be 3ee0 ae3d
00000330: e9fb 89bd f09c 873d 034e c13d 11d1 a2bd
00000340: 7434 143e 62ff eb3d 89d5 9fbb 48ba e8ba
00000350: c9d3 9f3d 08fb a5bb 5dc6 21bd 4898 b9bd
00000360: 1f09 0bbe 2f61 5c3d 2605 03be 7338 cd3d
00000370: 05ce a9bd cba8 07be 7f71 d63d aacc 583d
00000380: d65d 87bd 6c96 493d 39eb 833d 0b97 3c3e
00000390: 3313 f6bc c609 0c3d 2155 c5bd 4bb0 cc3c
000003a0: 03a0 21bd e455 413e aecc f5bc b32a d73a
000003b0: a8bc 003e e0ec 9b3d 1c19 a3bc fd35 d13d
000003c0: cb6a 133e ffca 0e3e dbe2 9b3d b30c d7bd
000003d0: 3f8d c3bd e55e b63c b7cb 983d 0bec 8e3d
000003e0: 0e03 c23d 1bdc 19be d35e 9cbc 4b9f ec3d
000003f0: 655e c43d 58cb afbc cf7e 153c 8295 97bd
-0.02175919 -0.07872214 0.045573406 0.08707351 -0.13182531 -0.046385076 -0.10828739 -0.092900135
-0.045892004 0.06505508 0.0719175 -0.0196698 -0.033523068 0.13775906 -0.08708217 -0.10460083
-0.16391751 0.07930675 -0.13566463 0.045340583 -0.06838117 -0.0704461 -0.057332467 0.10202012
-0.04281426 0.3348341 -0.0017097231 0.03653224 -0.12789418 -0.09522531 0.17592405 -0.049359348
0.120920904 0.14814563 -0.107957564 0.06973058 -0.11812943 -0.02805173 -0.10938418 0.0020802221
0.14887129 -0.04753625 0.070498645 -0.044126548 -0.16493152 -0.09749172 0.04438212 -0.14453399
-0.06504057 -0.0061278376 0.04021335 -0.15590064 -0.12277076 -0.10273081 -0.035867244 -0.006194815
-0.008343821 0.108155645 0.09330552 0.12056734 -0.019369101 0.05201401 -0.030456496 -0.085906506
0.044608627 -0.06577569 0.020054242 0.117665514 0.09592495 0.009268454 0.0720487 -0.08634615
-0.10693378 -0.14210993 0.085503645 0.02944453 0.05628472 0.0752916 0.080844276 0.08801245
-0.014174565 -0.04163447 0.006683129 0.08448921 -0.014769964 -0.045105696 -0.048128363 -0.073158674
-0.012455939 -0.13125375 0.07011027 0.07041348 0.07592154 -0.039824508 -0.032103512 0.03439489
-0.12219405 0.10065149 -0.04445232 0.06411006 -0.02794675 0.046820693 0.041907266 -0.13175376
-0.109097525 0.0025700543 0.084019974 0.11126689 -0.18508884 0.06570386 -0.037511747 -0.018119447
-0.0010838221 0.09671072 -0.08452492 -0.06410005 -0.20856822 0.03046099 -0.1030366 0.013460059
-0.14707828 0.05180248 -0.03376743 -0.03371874 -0.16241293 0.16369547 0.048817553 -0.10799473
0.08886507 0.056451958 0.09290976 -0.07362352 0.11945881 0.043522384 0.0650944 0.026696965
-0.039220147 -0.014993987 -0.11917508 -0.12183225 -0.026431937 -0.15504222 -0.060922183 0.054385975
-0.1628594 -0.11866394 0.024204522 0.13483755 0.021282911 -0.01994933 -0.15341 -0.03457272
-0.15321475 0.00969567 0.08426089 -0.032350983 -0.02569194 -0.11095931 -0.15210651 -0.04423461
0.119517565 -0.104730606 -0.100075975 0.012192709 -0.025395595 -0.087856516 -0.018140234 -0.04003818
0.057973165 0.012866473 -0.11362433 -0.022798926 0.16861519 -0.009388638 0.03342915 0.030271625
0.01066708 0.025023688 0.06472427 0.07876526 0.028166063 0.107480966 -0.07658474 0.015057402
0.074469425 0.059518784 -0.0902103 0.024520162 0.053203337 0.067997426 -0.09546625 0.12781256
-0.0603014 -0.071020275 0.040656425 0.032982435 0.007927659 -0.053961456 0.06395566 0.07906243
0.054368887 0.108448766 -0.15964766 0.085388646 -0.06737501 0.0662173 0.09438708 -0.079500325
0.14473134 0.1152332 -0.0048777503 -0.0017755711 0.07804067 -0.0050653256 -0.039495815 -0.090622485
-0.13577698 0.05380362 -0.12794933 0.100205325 -0.08291248 -0.13247983 0.104708664 0.052929558
-0.06609695 0.04921572 0.064413495 0.18416993 -0.030038452 0.03418901 -0.09635378 0.024986407
-0.03945924 0.18880421 -0.030004825 0.0016415924 0.12571967 0.0761354 -0.019909434 0.102153756
0.14396207 0.13944624 0.076116286 -0.10500469 -0.09548425 0.022262046 0.074607305 0.069786154
0.09473239 -0.1502537 -0.019088184 0.1155382 0.09588317 -0.021459267 0.009124472 -0.07401563

lstm.bias_ih_l0 f4 [200]
00000000: 5c7c 2c3d 0a2a 16be cec6 963d 7e11 63bd
00000010: 8256 5fbd 1e1b e23d 9351 eabd 0be0 193d
00000020: 33c8 19be 1bd7 cdbd 6c61 04bd b64c b33c
00000030: f5db 863d 8363 fbbd f6b8 863a a851 1abd
00000040: cfdb 13be 21d0 a53d 7fd2 53bd ed65 8cbc
00000050: edba 05be 8f4a 873d 9557 ff3c 33e3 e83d
00000060: 127f 98bd 45cd 373e e75e 25be e208 8c3d
00000070: 72fa 5e3d efa3 693d e4aa 5ebd 6bcc 9abd
00000080: cd4d 3cbe 7e9f 913a 3622 df3d 7e8c 25bc
00000090: c855 ab3d a812 183e c1c1 a0bc 1503 e6bc
000000a0: 7288 f8bc beea a93d a898 973c 9d30 d43d
000000b0: f09e 79bd e130 c1bd f671 0b3d 1114 04be
000000c0: 4e2b 75bd e5c6 f0bd 2c4a 723d 704a 293d
000000d0: dc39 4c3d 29cf 233d 2608 95bc f54a 01be
000000e0: 6d4e 20be 3237 c13d dfbd 183c be18 4cbe
000000f0: 455e 143d 0f19 24be 6e4a e6bd d902 6d3d
00000100: 51cd febd 5db5 1fbe 501f 573d 212f 19be
00000110: 22be d83c 05d1 0f3d 435f 8f3d d705 1bbd
00000120: 1b7d bb3d 268b 31bd 8522 d13d 2cd2 48be
00000130: 2425 c6bd 1418 45bc 10ac 7dbd e0e1 3a3d
00000140: 143d 03bd 561d a03d a58c 9f3c 1ea0 21bd
00000150: 2045 8abd d7dd 08bd 1c72 bebd a840 b73d
00000160: d2b5 a93d b5c0 b9bd afe1 433e b7ab 0bbe
00000170: f44a e5bc fcab e6bd 159d 87bd 4983 763c
00000180: b9cb 04be 2577 0fbe 8a5c 17be 9888 cdbc
00000190: a030 84bc b4ea ee3d 9ad7 853d 1623 08be
000001a0: ced4 60bd c37a c83d a441 70bd 9d04 2dbe
000001b0: de5a f73c 9900 0d3d d4fb 5bbd 5c28 213e
000001c0: ada8 9ebd 0f9b a03d 0d00 a4bc 749f 013d
000001d0: d567 193d 6c61 13be 5c0d 143d 5c28 9a3c
000001e0: 1c50 0c3e aa73 e3bc a2bd 96bb 5f9c e9bd
000001f0: af5e f9bd 4c7a 233c 1509 ec3d cc1b 083c
00000200: 3999 0f3b 3d27 2a3c caa8 4cbe 10a5 5abc
00000210: c6f2 53bd 7c7d ec3d c4c1 47bd 7e24 d93d
00000220: a35f d6bc 5477 b13c db90 ed3d 9756 813d
00000230: 9a32 fdbd fb37 033d 33fd 8c3d 9118 42be
00000240: 5a47 b53c a2c0 c1bd 96eb d03d 4d7c 093e
00000250: 1aa3 0c3e cc40 e2bd 5fbc 4e3d 1f53 dcbd
00000260: 889d efbc 64b8 dcbd 0e7f bcb9 bf31 00bd
00000270: 8f29 05be 4168 8abd 8363 273c 3137 f33d
00000280: c73f 6d3b 6ce6 713d c0a0 19be 347a 20be
00000290: 0774 28be 39a2 d6bd 234c f2bc dd77 19bd
000002a0: 5742 fa3d 70df ffbc cf0f f4bd 86b0 bdbc
000002b0: dca3 ebbd badc abbd 5541 223d e89f 2dbc
000002c0: 5571 23be c845 ebbd f0fc 50bb 4b32 1ebd
000002d0: d3bf 903d 3d10 693d 5c34 0dbe f019 563d
000002e0: 447c 963c f0bc aebc b75d d2bd 704a a8bd
000002f0: 3dfc 293c e862 86bd ed13 973d bbd3 df3d
00000300: 123a e9bd 4514 d6bd 80c2 f03d ca63 c9bd
00000310: 8d19 11be b57b 56bc f395 253d aa43 46bd
0.042110786 -0.14664474 0.07362138 -0.055436604 -0.05452586 0.110403284 -0.1144134 0.03756718
-0.15017776 -0.10050794 -0.03231947 0.021887165 0.06584922 -0.1227484 0.0010278511 -0.03767553
-0.14439319 0.08096338 -0.051714417 -0.017138446 -0.13059588 0.06606018 0.031169692 0.1137146
-0.07446112 0.17949398 -0.16149484 0.06837632 0.054438062 0.057041105 -0.054362193 -0.07558521
-0.18389054 0.0011110154 0.10895197 -0.010104297 0.08365971 0.14850867 -0.019623639 -0.028077642
-0.0303385 0.08296727 0.01850541 0.10360835 -0.06094259 -0.09433151 0.03404423 -0.1289828
-0.05985575 -0.11756686 0.059152767 0.041330755 0.049859866 0.039992485 -0.018192362 -0.1262625
-0.15654917 0.09434356 0.009322613 -0.19931313 0.036222715 -0.16025184 -0.11244665 0.057864044
-0.12441505 -0.15596528 0.052520096 -0.14959385 0.02645785 0.035111446 0.070005916 -0.037847366
0.09154721 -0.043345593 0.10211662 -0.19611424 -0.09675053 -0.012029666 -0.06193167 0.045625567
-0.03204067 0.078180954 0.019476244 -0.03945934 -0.06751466 -0.033414688 -0.092991084 0.08947879
0.082866326 -0.09069959 0.1912906 -0.13639723 -0.027989842 -0.11263272 -0.06621758 0.015045949
-0.12968339 -0.14010294 -0.14781395 -0.025089547 -0.016136467 0.1166586 0.06535263 -0.13294634
-0.054890446 0.0978904 -0.05865635 -0.16896291 0.030194696 0.034424398 -0.05370696 0.15738052
-0.07747016 0.07842075 -0.020019555 0.031646207 0.037452538 -0.14392632 0.036145553 0.018818073
0.13702434 -0.027765114 -0.0046002427 -0.114067785 -0.121762626 0.009977888 0.1152517 0.008307409
0.0021911396 0.010385332 -0.19986263 -0.013345018 -0.0517452 0.11547372 -0.048768774 0.106026635
-0.02616865 0.021663345 0.115998946 0.06315344 -0.12363167 0.03203581 0.068842314 -0.18954684
0.02212875 -0.0946057 0.102011845 0.13426323 0.13734093 -0.11047515 0.050472613 -0.107580416
-0.029249921 -0.10777357 -0.00035952817 -0.03129744 -0.13004135 -0.06758166 0.010216597 0.11875761
0.0036201344 0.059057638 -0.15002728 -0.15671617 -0.16450511 -0.1048016 -0.02957732 -0.037467826
0.122196846 -0.031234473 -0.11917078 -0.023155462 -0.11505863 -0.083917096 0.039613087 -0.010597207
-0.15961201 -0.11487919 -0.0031889044 -0.03862218 0.070678376 0.05690025 -0.13789505 0.05227083
0.018369801 -0.021330327 -0.10271781 -0.08217323 0.01037508 -0.065618336 0.073768474 0.10929056
-0.11388029 -0.10453085 0.11755848 -0.098334864 -0.14169903 -0.0130910175 0.040426206 -0.048404373

lstm.bias_hh_l0 f4 [200]
00000000: c713 e5bd a110 8bba 6eeb 3dbc ac7a 9c3d
00000010: 24ae f5bc b136 2d3d d499 873d d640 e0bd
00000020: bf09 52bc df36 643d b479 a6bc a14a be3c
00000030: 870b c6bc da49 aebd d67a b6bd f633 003e
00000040: 6e81 d13d 02da 1fbd 8b59 10be 11ec 603d
00000050: 1b4c 0fbe 76b3 5f3d f68d 31bd 42a2 fbbd
00000060: f5e7 a9bd 62e8 513e fd62 8cbd a48d 933d
00000070: 6190 c7bd 32b9 403e eb7a 313e 92e4 a2bd
00000080: 7527 adbd 0b37 813d 2ff7 363d 51d8 d03d
00000090: ee29 5b3d 2112 09bd f9ad 903d f06d 82bd
000000a0: f505 263e 52ea f2bc 28ba d2bd e897 06be
000000b0: f260 4a3d b357 64bd ab6f 063d 87d9 fa3c
000000c0: 4f77 6ebd 36ff bbbd e14a d9bd 0eb4 24bd
000000d0: fb34 343d 6bba afbc 97e8 52bd d61d 273d
000000e0: 22f0 6f3d b4b3 913d d987 20be b049 d63c
000000f0: 71c0 a83d 2579 3f3d a54d 05bd e44a 0fbe
00000100: e7ad 94bd 76dd 02bc 112e 8e3d 74ed 91bd
00000110: 381b a8bc dc95 313d 91de 9d3d dcf0 d9bd
00000120: 96a3 18be c9c2 19bd 9b09 19be 5e7f 20be
00000130: 79da 28be 910d f0bc 268a 32be 27eb 8e3d
00000140: 7c8a 09be 320f 04be cb49 7e3d 091f 08be
00000150: a1a3 b93c 85a8 6dbb 7258 23be 7929 8abd
00000160: 6510 18bd 26b5 1cbe d2b4 e53d 7184 a2bd
00000170: 6e77 c4bd 09ec babd 3e43 17be 2e60 03be
00000180: 55e8 0a3d c9dd b6bd ee96 0c3d eef9 8c3d
00000190: 897a 1c3e 94b4 803c c728 a93d 6bc8 263d
000001a0: 8738 4f3d aea3 a13b cdd7 e53d c543 82bd
000001b0: 6205 98bd cd95 443d 8191 b03c 31dd cabc
000001c0: 86c8 da3d b893 9a3d 8922 c1bc ab66 413e
000001d0: 8716 033e dc8c 80bd 9296 033c f811 23be
000001e0: cf8d c8bd 25d7 cfbd c6f6 6c3d e299 96bb
000001f0: d808 34bd 9821 0d3e bf71 bbbc 805f 503d
00000200: a4f3 6f3d f60a 1c3e 0134 25be 2bf4 403d
00000210: 5448 2dbd dd00 e8bd 6e7c f13b 7d9b 283c
00000220: d930 353e a626 2f3e 968b 0e3d 8686 c83d
00000230: 8838 bd3d c0c0 f13d 3d1b debd e1eb 873d
00000240: 697f 96bd aa5b 223e 46bc b13d 2e05 343d
00000250: 67b4 a8bd 0cac 283d c9d1 013e a3c1 02bd
00000260: 6558 9a3d c4d0 28be 7550 cabd 0e10 29bd
00000270: 7fe6 e63d bb31 9fbd 7d2e 5f3d c93a 78bc
00000280: dab8 e43d 16ea 62bd 7234 88bb 59a9 d6bd
00000290: f218 1bbe 00e7 41bc 8876 1fbe 7888 11be
000002a0: 0c42 01be 1807 44bd 62b5 2abe beef 10be
000002b0: c794 9ebb 089f 17be e279 6dbd 5413 493b
000002c0: 65e8 913d 80a1 2dbe 53a0 0dbe 3626 cebd
000002d0: 48a6 4d3d e6b8 b83d d60e f1bd 0c28 03be
000002e0: 0275 cc3c 69bf fa3c 9dc4 b8bd 45cf cbbd
000002f0: 4251 d2bd 48ab ad3c fb9d 37be 680e 33bd
00000300: b59c 4abd 391d afbd fdd4 a7bd 6513 6a3d
00000310: d114 2dbd 09f0 26be 7b4c 10bd ac3d 05bd
-0.11185413 -0.0010609814 -0.011591775 0.07640585 -0.029990263 0.042288486 0.06621137 -0.109498665
-0.012819706 0.05571639 -0.020321704 0.023228945 -0.024175419 -0.0851018 -0.08910148 0.12519822
0.10229765 -0.039026268 -0.14096658 0.05491263 -0.13993876 0.054614507 -0.043348275 -0.122868076
-0.082961954 0.20498803 -0.06854818 0.0720475 -0.09744335 0.18820646 0.17332046 -0.079537526
-0.084547915 0.06309327 0.044669326 0.10197509 0.053506784 -0.033464555 0.07064433 -0.06368625
0.1621321 -0.029652748 -0.10289413 -0.13143885 0.04940886 -0.0557477 0.03282134 0.030621303
-0.05821925 -0.09179537 -0.10609985 -0.040210776 0.04399584 -0.021451196 -0.051491346 0.04079994
0.058578618 0.07114354 -0.15676822 0.026158184 0.0823983 0.04674639 -0.03254475 -0.13993412
-0.07259732 -0.007987371 0.0694238 -0.07125369 -0.020520791 0.043355808 0.07708467 -0.106416434
-0.14906153 -0.037539277 -0.1494507 -0.15673587 -0.1648959 -0.029303344 -0.17435512 0.069784455
-0.13431734 -0.12896422 0.062082093 -0.13293089 0.022661032 -0.0036263776 -0.15951708 -0.067461915
-0.03712501 -0.15303478 0.11216129 -0.079354174 -0.09593092 -0.091270514 -0.14771745 -0.12829658
0.033912975 -0.08929021 0.034323625 0.06883608 0.15281118 0.015711106 0.08259731 0.040718477
0.050591018 0.004932842 0.11222801 -0.06360582 -0.07422902 0.047994424 0.021553757 -0.024763675
0.10682778 0.07547706 -0.023576038 0.18886821 0.12801562 -0.06276867 0.008031504 -0.15924823
-0.09792673 -0.101484574 0.05785253 -0.004595981 -0.043953747 0.13782346 -0.022881387 0.050872326
0.058581963 0.15238556 -0.16133119 0.047107857 -0.042305306 -0.1132829 0.0073695695 0.010290978
0.17694415 0.17104587 0.03480109 0.09791283 0.09239298 0.11804342 -0.10845039 0.06636787
-0.0734852 0.1585528 0.086784884 0.043950252 -0.08237534 0.0411797 0.12677683 -0.031922948
0.07536391 -0.16485888 -0.09878627 -0.041275077 0.112744324 -0.07773157 0.054487694 -0.015150734
0.1116807 -0.055399023 -0.0041566426 -0.10481519 -0.15146235 -0.01183486 -0.1557256 -0.14212215
-0.12622851 -0.047858328 -0.16670755 -0.14153954 -0.004839513 -0.1480676 -0.057977565 0.0030681686
0.07124404 -0.16956139 -0.1383069 -0.10065882 0.050207406 0.090196416 -0.11770408 -0.12808245
0.024958137 0.03060885 -0.09021876 -0.09951643 -0.10269405 0.021199837 -0.17931359 -0.04371491
-0.049465854 -0.08550496 -0.08194921 0.057147402 -0.04225618 -0.16302504 -0.035229187 -0.032529518

linear.weight f4 [70, 50]
00000000: 11d1 1f3d 137b 133e 916a b8bd 7b55 b33d
00000010: 8d47 a33d 961b 773d 25b9 50bc 53a2 b6bd
00000020: 8e26 353d 34a7 95bd 3f6a a53c ce36 b5bd
00000030: 1feb 0d3e e744 63bd fe48 22bd f087 873d
00000040: 9bcd 713d 9c39 9dbd 7cd2 f73d 2294 54bd
00000050: f9d0 57bd 0bd7 de3d c952 93bd fb02 e13d
00000060: 6b6e b93d e4f1 d3bc b225 253d 37e2 583d
00000070: 2230 be3d 09d4 d73c 29ee 83bc 55b3 e8bd
00000080: 0fe8 033d 947f f0bd a047 003d 8776 16be
00000090: d684 e4bc d1c2 c2bc 9f25 05be fb3a e83d
000000a0: 129a 0d3e aaf8 33be 8f32 fb3c adf3 19bc
000000b0: 207f 79bb 2bb4 77bd 6ea3 80bd 5251 e03d
000000c0: 75ab a3bd da76 373d b93d a33d b985 bd3b
000000d0: 9a93 06bd edee eb3c ddff 45bb e21c 1b3e
000000e0: b9bf 153d 79ef 2ebd 807e 4d3b 4967 2cbc
000000f0: 6644 99bd 2089 0abd 3569 e6bd 681c 2dbd
00000100: 9546 96bd 8793 18bd 86f7 f43d fac4 0d3e
00000110: 2ff7 aa3d d729 383d 095b 613d 3318 cbbd
00000120: b50a 14be 0437 37bd af2a 123e 2b8a 24bb
00000130: 59f5 fdbd c949 28be 0c49 743c 3aa6 b2bc
00000140: bbf8 13bb ec40 85bd 1523 27be d1fc bc3b
00000150: 46b6 7e3d 61c2 94bd 66b1 04bd df2e 64bd
00000160: 8088 0abe 62f3 01bc b51a 46bb 4963 a2bd
00000170: fdeb 07bc 18c8 a23c fa77 a6bd 8b31 dabd
00000180: 88ea 39bd 4623 ad3d 0f30 8e3d 5daa c73c
00000190: cb7c 883d ca16 d83d 514f 6abd 69b8 eabd
000001a0: 5dde 0ebe acab 2e3e 8e6b 70bd 501f 91bd
000001b0: 5dfb 9c3d 0efe 803d abc6 02be a9c8 b2bd
000001c0: 3719 8d3d 7e8d 09be 616c e9bc 72cc 213e
000001d0: 4892 ffbd ddb6 0f3e d57b 133e 2727 1bbc
000001e0: b502 1c3d f3d1 223d 254d acbd df37 2fbd
000001f0: 692b 083d 54a4 a3bc eb27 80bd 373f 1fbe
00000200: 411b 793d 9d6a 743b 1d0f c4bc 9a29 913a
00000210: 03d5 d8bd 2901 41bd ffbd 32be 4e3c e9bd
00000220: 0185 a23d a480 59bd 9ce5 99bb ec3f fd3c
00000230: cbba 043d c5aa 10be 2e18 94bd f7a7 84bd
00000240: c119 b33d e552 c63d 1dc3 f1bd d89d c63d
00000250: 70e1 e2bd b3e5 253e f223 fdbd afec c83d
00000260: db6c e03c 22ad f13c 37b3 1c3d 837f de3d
00000270: 3156 983d 8183 ebbc 6a0a 87bd a5f0 05be
00000280: 533e 13be ed12 00be 0dab 723c 43a9 adbd
00000290: 521c b43d 42ac 2e3d 739d c93d c023 04bd
000002a0: 75af 0f3e 3468 8e3d 71af 043e 760b f2bd
000002b0: 65cb bfbd 2bf0 8cbd b99a 22bd 0e43 f2bc
000002c0: 76fb 103d 4fe5 713c 5a5b eb3d e62f 56bb
000002d0: 1499 d5bc 8c9d 8a3d 87f3 c1bc 8944 f7bd
000002e0: 1415 413d 2773 913c 875d 03bd 516a 20be
000002f0: ceff 463c 2319 a23d ac35 833d 4ce7 803b
00000300: d990 a03d dbac bd3d 5db5 f73d f46b 8d3d
00000310: 5bcb 31be 3dcc a73c 1c9e a63d ae89 f43c
00000320: a9a0 c1bc d60a 133e b04e 033e 9ed3 c8bd
00000330: f933 9f3d ef9a f8bb cffc 2e3e 501b 42bd
00000340: c9d5 a7bd 09b1 d4bd 3357 a6bc 5667 0cbe
00000350: eece 20bd b7a2 8d3c 1e0e f8bc c16e 023e
00000360: 2681 7bbd 08b6 753d 237e 073d d93e 903d
00000370: 2b7c 17be c1a2 e7bd 08c8 493c ef0b 8cbd
00000380: 650f 09bd e5c0 8abd 996a 183d 4329 b23c
00000390: cae7 08bd 6cd5 823c 3252 9b3c d940 2b3b
000003a0: da04 a4bd 2265 05be 5b3e 413d 0fab 1e3d
000003b0: 6fbe de3d 5c84 2b3e 22be d9bd bd49 193e
000003c0: 91cd c9bd 4092 27bd cff6 ab3d fd07 e33d
000003d0: 6ce4 6f3d 6874 903d 295a cbbd ab71 3a3e
000003e0: 6124 fcbd 553f e03d 71e5 e53d 0aaa 3d3c
000003f0: b389 87bd cb6c 9a3d 8c2c a9bd 989b 3a3d
0.03901774 0.14402418 -0.09004701 0.087565385 0.079726316 0.060329042 -0.012739454 -0.0891768
0.04422622 -0.07307282 0.020192264 -0.08848344 0.13859223 -0.055485632 -0.039620392 0.06617725
0.05903397 -0.07677004 0.121006936 -0.051899083 -0.052689526 0.1088086 -0.071935244 0.109868966
0.09054264 -0.025872178 0.040319152 0.05295011 0.09286524 0.026346223 -0.016104775 -0.1136233
0.03220373 -0.117430836 0.031318307 -0.14693652 -0.027895372 -0.023774536 -0.13002633 0.11339375
0.13828304 -0.17575327 0.030663757 -0.009396476 -0.0038070157 -0.060474556 -0.06281172 0.109530106
-0.07991687 0.04479108 0.07970757 0.0057837632 -0.032855608 0.028800452 -0.003021232 0.15147737
0.036559794 -0.042708848 0.0031355917 -0.010522672 -0.07483749 -0.03382218 -0.112505354 -0.04226342
-0.07337681 -0.037250068 0.11961274 0.13844672 0.08347928 0.044961777 0.05501846 -0.09916725
-0.1445721 -0.0447302 0.14274095 -0.0025106769 -0.12400312 -0.16434397 0.014909994 -0.021807779
-0.0022578675 -0.065065235 -0.16321976 0.0057674428 0.06218555 -0.07263637 -0.032395743 -0.055708762
-0.13528633 -0.007931562 -0.003022832 -0.079290934 -0.00829601 0.019870803 -0.081283525 -0.10653981
-0.045389682 0.084539935 0.0694276 0.024373228 0.06664427 0.10551222 -0.05720455 -0.11460955
-0.13952012 0.17057675 -0.058696322 -0.070860505 0.07665131 0.06298457 -0.12771098 -0.08729679
0.06889575 -0.13432881 -0.028494062 0.15800646 -0.12479073 0.140346 0.14402707 -0.009469784
0.03808852 0.039751004 -0.08413152 -0.042777892 0.033244524 -0.019975819 -0.06257614 -0.15551458
0.060817007 0.0037294992 -0.023932988 0.001107502 -0.10587504 -0.047120247 -0.1745529 -0.11388455
0.07935525 -0.053101197 -0.004696561 0.03091427 0.032404702 -0.14127643 -0.072311744 -0.06477349
0.087451465 0.096837796 -0.11804793 0.09698075 -0.11078155 0.16200905 -0.12360372 0.09810769
0.027395656 0.029501501 0.03825685 0.10864165 0.07438315 -0.02874923 -0.06593783 -0.1308008
-0.14379244 -0.1250722 0.0148112895 -0.0847955 0.08794464 0.042644747 0.09844484 -0.032260656
0.14031775 0.06953469 0.1295755 -0.11818592 -0.09364966 -0.06881746 -0.039698336 -0.02957299
0.03539606 0.014764144 0.11492033 -0.0032682358 -0.02607397 0.06768331 -0.023675693 -0.12073619
0.047139242 0.017755104 -0.032071617 -0.15665556 0.0121459495 0.07914951 0.064067215 0.0039338227
0.078401275 0.09261485 0.12095139 0.06905356 -0.1736273 0.02048313 0.08135626 0.029850807
-0.023636179 0.14359602 0.12822986 -0.09805988 0.07773585 -0.007586829 0.17088626 -0.04738933
-0.08195073 -0.10385329 -0.020305252 -0.13711295 -0.039259844 0.017289503 -0.03028017 0.12737562
-0.061402462 0.05998805 0.033079278 0.07043237 -0.1479346 -0.1131034 0.012315758 -0.06838214
-0.033461947 -0.06775073 0.037211034 0.02174819 -0.033424176 0.015970908 0.018960092 0.0026131182
-0.08008738 -0.1302686 0.047178607 0.038737353 0.10876166 0.1674971 -0.10631968 0.14969535
-0.09853662 -0.04091096 0.083966844 0.11085508 0.05856745 0.07053453 -0.09929306 0.18207423
-0.12311626 0.109495796 0.11225403 0.011576185 -0.06618061 0.07540282 -0.0826045 0.045558542

linear.bias f4 [70]
00000000: d2a2 b63c fac5 b93c ed11 98bd f302 ac3d
00000010: f338 4dbd 82c5 db38 9237 533c 465c 1f3d
00000020: feb7 d93d 8682 f93d b5d8 e73c 5eb6 4ebd
00000030: c19c 243d 9f0b 953d f885 343c eb38 d63c
00000040: 4343 853d 07bd 95bd 8d1a 043e 4acd 8b3c
00000050: aadc 7a3c 35f5 a33d d00f dc3c a9a4 0fbd
00000060: c46d 7abd 9c16 023e 25ae 6b3d 9069 c13c
00000070: 0b92 aebd f5d5 a33d 3bbf 8abd 55c9 7c3d
00000080: 6425 0c3e da5b cf3d c762 973d fb20 a73d
00000090: 9443 f93d 7bd2 b73d 1bae 0c3e 91b3 93bd
000000a0: 5f7d 753d cb7a fc3d 5e15 023e 8c92 073d
000000b0: d76b 2bbd b6a4 c73d 8cf0 233d af58 b33d
000000c0: 3fdc 133d fc6a 203d 179d 6a3d e234 073d
000000d0: b212 563d c670 003d 105f a73d 947c c13d
000000e0: 510c 9d3d 8e0b 5bbd b295 e13d 60cd 063e
000000f0: 2495 fc3d b72f e9ba 1aa1 f03d e101 d63d
00000100: df49 063e 9606 b13d 8e96 cb3d 00c3 b23b
00000110: cfdb 0c3e 11a1 263e
0.022294436 0.02267741 -0.07425294 0.08399 -0.05010314 0.000104795225 0.012891667 0.03890636
0.10630797 0.121830985 0.028301576 -0.050466888 0.040188555 0.07277607 0.011018269 0.026150187
0.0650697 -0.07311445 0.12900753 0.017065663 0.0153113995 0.08005754 0.026863009 -0.03506914
-0.061139837 0.12703937 0.057539124 0.023609906 -0.08523949 0.079997934 -0.067747556 0.061715443
0.13686138 0.10124941 0.07391887 0.081605874 0.12171093 0.08975693 0.13738291 -0.07211984
0.059934016 0.123281084 0.12703463 0.033098742 -0.04185089 0.09748213 0.040024325 0.087571494
0.036098715 0.03916453 0.05727872 0.033009417 0.052263923 0.03135755 0.081724286 0.094475895
0.07668365 -0.053477816 0.1101488 0.13164282 0.12333134 -0.0017790709 0.11749478 0.10449577
0.13114117 0.08643834 0.099408254 0.0054553747 0.13755725 0.1627238
