example_5_online_verification/predictors/vel_predictor.pth (torch, 122759 bytes, 6 tensors)

lstm.weight_ih_l0 f4 [200, 81]
00000000: c1db 0b3d 1ac9 1dbe e72c 42bd 3091 9f3c
00000010: 1b57 97bb e198 8ebd 5f06 e7bd 468d 0abd
00000020: f1f4 35be 8ec4 3bbe 0feb bc3d 69ed e7bd
00000030: 8c45 59bc 2e81 00be 8838 743d 8bd8 7abc
00000040: 5558 74bc 2a79 abbc 1f6a 32be e142 803a
00000050: 0107 8fbc 76a0 eabc 65fd febd 2c2f c7bd
00000060: b6c8 1cbc d674 03be 07cf 07be 6150 7ebd
00000070: ce9c a2bc 91c3 02ba ad06 16be d464 eebb
00000080: 2c75 cd3d cc7e 9cbd 48d7 32bb 707f 003d
00000090: adc4 583b b130 d9bc 0727 aabd 5d29 a03d
000000a0: 242e 06be 73b1 b63d 158c 4a3d dd04 b1bd
000000b0: 52b4 0fbe b452 0fbc 56f7 0abe 8bdc 1dbd
000000c0: 2ae8 ab3d 2a68 63bd 4354 86bd b320 f7bc
000000d0: 1ea6 b0bd a231 f43c d1b9 cebd d43c 2abe
000000e0: d3c6 293d 653d d03c b1ab 2fbd 9a0b 39be
000000f0: 5ef6 e4bd 1d0d cb3c f324 fdbd cef1 0bbe
00000100: 7684 d1bd c1df 3a3d d54b 12be 2105 0ebc
00000110: 6aed 00be 4ace f23c 1522 943d 8251 bcbd
00000120: 91af d0bd 3294 923c ec28 00be 79b9 04be
00000130: 5ae7 55ba 1bcb 3c3d d9b7 833d f100 543d
00000140: 77df cebd c4f4 ddbd 532f 2abd 7850 95bd
00000150: cb61 36bd 7304 07bd 9b0a 51be 0830 1abe
00000160: 1283 3dbe cac5 4bbe 9adb 6fbd 07b7 30be
00000170: 4ed5 dd3c 8aeb 11be da35 84bc 7168 11be
00000180: f04d f5bd 045f bf38 ef04 4bbe 5828 d6bc
00000190: f1a9 b0bd b845 98bd a969 34be c843 a0bd
000001a0: 9d18 c13c d0fe 5ebd b244 b6bd 3693 e2bd
000001b0: e2ce 24be 8166 efbd 34b4 253d 6656 223d
000001c0: b572 35be e064 43be 84c2 713d aba5 1fbe
000001d0: 23e3 36be 5bb1 d3bd 34bb 2e3d ef97 1cbc
000001e0: a507 19bd 4341 a5bd 8dd1 373d 0eb6 11be
000001f0: 148e a9bd b89d 0bbd d08d e13c 9311 3cbe
00000200: ccdb e9bd 0364 49be 05af 5abd 2cde 2abe
00000210: 19dd 4dbe 2bf7 0dbe 3da0 543d 2d08 fbbc
00000220: 9f9a 51be 36e8 7d3d f6d8 a4bd 8963 17be
00000230: 1668 5b3d 6302 bcbd c922 18bc 4945 78bd
00000240: 0fd8 5a3d 563b 04be b4a4 2bbe c25f 09be
00000250: da8e dfbc e8c8 52bd 4e73 7fbd 1f09 3d3c
00000260: c924 23be 751c 3dbe d84b 4ebe f045 a2bd
00000270: 51aa e9bd fe01 2fbe 56d0 29bd 4754 37bd
00000280: 5d43 0cbd ad1a 3fbe 74e7 293d 1628 2d3e
00000290: 94bd 293e 1301 a9bd e600 59bd 906e 123e
000002a0: be22 1b3d cc64 413e acfc 053e e131 5c3d
000002b0: 4dd2 1e3e fcd4 4d3d 499d 323e 9062 31bd
000002c0: 82b2 2b3e 3bb1 133c 5c17 10bd bb91 b23d
000002d0: 4ce6 023d 698c 86bd c0cb 9d3d 18c7 143e
000002e0: d4d7 223e a3b1 1cbd dac4 82bd 68f5 123e
000002f0: 4d1b 34bd 5af2 f73d 30d3 4ebd 3f28 8b3c
00000300: 28d1 cb3d 9508 223e c90f 90bd e59e 53bd
00000310: 627d 26bd 72c0 723d adea 593d e9a6 2d3e
00000320: 87a4 473d c333 373c 017b b73d b2dc c4bd
00000330: 72ad c0bd 07f6 8c3d cb36 8c3d 15cb 213e
00000340: f2f8 093e bca3 d1bc e2cd 893d 9116 1b3e
00000350: a651 9c3d 07df 4e3d ce36 303e d1ae c8bd
00000360: 1381 a8bc 7b26 343d a479 af3d 79b0 093e
00000370: 6b20 ae3d e765 b93d 86d6 0b3d 5d00 4dbd
00000380: 6f7c 1b3e 2167 4c3d d8f4 9fbd be41 443e
00000390: 3e32 443e 5f01 053e d161 2d3e e95e 2b3c
000003a0: 0b88 443d 1952 2c3e b465 123e 3f80 173b
000003b0: 39b3 51bd eb30 423e 1d00 933c 35bb 0ebd
000003c0: a6ff 5d3d 4738 ea3d d73d 10bd 38ec 0d3e
000003d0: e517 303e c253 93bd 04a2 43bd 6568 353d
000003e0: 9cf0 f43d 3294 dc3d afd3 66bd 6cd3 1e3e
000003f0: e15a 243e 89d3 e73b 3d47 bc3c 8586 633d
0.03414512 -0.15408745 -0.047406103 0.01947841 -0.004618538 -0.06962753 -0.11280512 -0.033826135
-0.17769219 -0.18336698 0.09224521 -0.11324579 -0.01326121 -0.12549278 0.059624225 -0.015310417
-0.014913638 -0.020931799 -0.17423294 0.0009785556 -0.017459394 -0.028640967 -0.12450675 -0.09725794
-0.009569338 -0.12837538 -0.13262568 -0.062088374 -0.01985016 -0.0004988248 -0.14650984 -0.0072752032
0.100321144 -0.07641372 -0.0027288962 0.031371534 0.0033076212 -0.026512476 -0.08308225 0.078203894
-0.13103539 0.089205645 0.04945 -0.08643506 -0.1403363 -0.008747745 -0.13570914 -0.038540404
0.08393891 -0.05551926 -0.065590404 -0.03016696 -0.08625434 0.029808823 -0.100940354 -0.16624767
0.04144938 0.0254199 -0.042888347 -0.18070832 -0.11179803 0.024786526 -0.12360563 -0.1366646
-0.10230343 0.045623545 -0.1428674 -0.008668215 -0.12590566 0.029639382 0.07233063 -0.09195234
-0.10189737 0.01789293 -0.1251561 -0.12961377 -0.0008159779 0.046092134 0.064315505 0.05175871
-0.10101216 -0.10837701 -0.04154904 -0.07290739 -0.044526856 -0.032963227 -0.20414202 -0.15057385
-0.1850703 -0.1989967 -0.058559038 -0.1725732 0.02707925 -0.14250007 -0.01613896 -0.14199997
-0.11977756 9.125288e-05 -0.19826101 -0.026142284 -0.08626164 -0.07435173 -0.17618431 -0.07825428
0.023571307 -0.054442227 -0.08899821 -0.110632345 -0.16094545 -0.11689473 0.04045506 0.039633177
-0.17719539 -0.1908145 0.059023395 -0.15590541 -0.17860083 -0.10336562 0.042659 -0.009557708
-0.037360806 -0.08069088 0.044877578 -0.14229605 -0.082790524 -0.03408596 0.027533442 -0.18366079
-0.11418876 -0.19667058 -0.053389568 -0.16686314 -0.20103873 -0.13863818 0.051910628 -0.030643547
-0.2046914 0.06198903 -0.080491945 -0.14784063 0.05356606 -0.09180143 -0.009285637 -0.06061295
0.053428706 -0.1291326 -0.16762048 -0.13415435 -0.027289797 -0.05146113 -0.062365822 0.011537819
-0.15932001 -0.18467887 -0.2014612 -0.07923496 -0.114094384 -0.17090604 -0.04145845 -0.044758108
-0.03424393 -0.1866252 0.041480497 0.16909823 0.16576225 -0.08252158 -0.052979372 0.14299989
0.03787493 0.18886107 0.13084668 0.053758506 0.15509911 0.050251946 0.17442812 -0.043306887
0.16767314 0.009014423 -0.035178527 0.08719202 0.03195791 -0.0656975 0.07704878 0.14529073
0.15902644 -0.038255345 -0.06385203 0.14351428 -0.04397135 0.12106772 -0.050494373 0.016986964
0.09952003 0.15823586 -0.07034261 -0.051665206 -0.040646918 0.05926556 0.05320232 0.16958202
0.04874089 0.011181775 0.08959008 -0.09612407 -0.09408082 0.068828635 0.068463884 0.15800126
0.13473871 -0.02559077 0.06728722 0.15145327 0.07632761 0.050505664 0.17208406 -0.097989686
-0.02056936 0.04398201 0.08568123 0.13446225 0.08502277 0.090526395 0.034140132 -0.050049175
0.15184186 0.04990304 -0.07810372 0.19165704 0.19159791 0.12988804 0.16931845 0.01045964
0.047981303 0.16828193 0.14296609 0.0023117212 -0.05119631 0.18963973 0.01794439 -0.034846503
0.054198883 0.11436515 -0.035215225 0.13859642 0.17196615 -0.0719371 -0.047761932 0.04428901
0.11959955 0.107704535 -0.05635422 0.15510339 0.16050293 0.0070747775 0.022983188 0.05554821

lstm.weight_hh_l0 f4 [200, 50]
00000000: 88e0 043d a8aa 7d3c 7d8c 043e 175c 05bd
00000010: 6325 1e3e 1d18 483d 88d7 313e ca73 093d
00000020: af86 a63d 2ec2 32be 18d9 84bc a856 e9bd
00000030: f161 723d 243f 4dbd 4d4a dbbd 9b33 ef3d
00000040: c0f9 55bd 94ea 7d3d 1b3f a6bc 1695 1b3d
00000050: e43d c5bd 2622 7abd b0b6 4a3d c0ad e73d
00000060: cd0b 30be 28a4 0dbe d872 a4bc 2e03 433b
00000070: 0982 68bc 1969 b1bd 788c bf3d e343 123d
00000080: abc3 9dbb dcbc 2e3d c41d 18bd 88a7 e8bd
00000090: b123 0d3e 4f5b d93c 1db6 e6bd 8dbb 59bd
000000a0: 0837 2cbd 887f 8dbd db6e 743d e134 3dbc
000000b0: 0d30 d63c 2b2d 76bd 2260 253e fdb8 a7bc
000000c0: 37f5 ca3c fbec f8bc 97cc 9dbd 2567 d23e
000000d0: a8b2 8cbe 55df 9bbe e348 a8bd ced5 ce3e
000000e0: 020b 383f 7e36 7fbd b480 99be 7d46 3fbf
000000f0: 0512 c5be fee9 863d e7c1 f6bd 1827 a3be
00000100: 12d2 90bd c194 97be 517b e2bd fe7f 62bd
00000110: 1ff1 16bd 8988 96be 76f4 10bf a4be c43e
00000120: 2448 873f b84e e43c 50b3 0dbe 99a2 d73e
00000130: b6fd 9f3e 26a5 a33e d22c 2c3e 9866 b539
00000140: 137f 313e ccdc 773f 7b5e a43e 2fad 623d
00000150: 3ea8 3b3e 17f9 8fbd 77c9 933c d15a 35be
00000160: 8e3c a1be f4fc a33e 80ba 443e d25d b2be
00000170: b0bc 5ebe d35e 93be 28f3 ebbe b763 90be
00000180: 8cdc 96be 412a 08be b45c 8a3e 6048 993e
00000190: f664 013d 0eba 73bd 3794 c4bd ed91 14be
000001a0: f1eb 733d 7b56 9f3d ad9e c03d 8c0e 81bd
000001b0: c7fe c9bc eb2d 6bbd d46b 12be bfca c93d
000001c0: 4850 3cbe 85e0 06be 34e0 913d 9cec fabd
000001d0: a884 723d 296a 0f3e 0ebb dabc 06fb 84bd
000001e0: f6c0 0b3c c590 4ebc 9c52 b6bc c4c2 53bd
000001f0: 45aa 033e 7810 323e ee50 223e 3113 2abe
00000200: 4187 0e3e 3baf ef3d 96ac bd3d 42a2 1e3d
00000210: dfde 2a3e 0e9c 903d f46a 76bd f6c3 0b3e
00000220: 6c53 eb3d 4975 e83d 4611 3cbc 10e1 babc
00000230: da42 ef3c 4f0e 41be f6fa 52bc d5e1 16be
00000240: f905 193d 4810 9bbd 220b 073c 5bb8 8cbd
00000250: 7b99 9e3b 082a c93d dbe3 1bbc 4dd5 50bd
00000260: e8e3 19be ee67 06be a7b5 95bd 7e7d 0cbe
00000270: 3614 debc fd88 94bd 84db d9bb 53f5 a5bb
00000280: a4d0 fd3d c987 1c3d ee72 18bc 2157 edbc
00000290: f606 843d 026f 4fbe a23c 93bd 496e f43b
000002a0: 4aa6 633d d181 cabd ae0c 42bd ab0b 5e3e
000002b0: 8102 c93d f5ec 30be 413d a4bb b1fd 4d3d
000002c0: e405 9dbd 121d 9cbc 1f66 8d3d 1c60 a23c
000002d0: 04c9 553b 4b9f d03d dcd1 0a3e ebcc 733e
000002e0: 0c67 12bc 1a97 233e 2b66 dc3c 2765 ed3d
000002f0: caee 6e3c db03 003e 0f29 b5bd 3d46 0a3d
00000300: ce1d 93bd 4d23 f93c ecb2 b23d f4f9 0ebe
00000310: 2216 4b3c 1027 06bd f4cc 413e 0cad 02be
00000320: 2551 3dbe 5193 1c3d b416 c9bd e906 c33d
00000330: 2cf1 2f3e ffcb 053e f529 4e3c 8213 633d
00000340: 30db 6cbd 22a4 f3bd 7db7 10be 421b 073e
00000350: ffe6 d3bb 9760 0fbd c9cd 84bd 5b28 183e
00000360: 7588 2f3e d842 503d 3cac 99bd 8056 8cbd
00000370: fc2d a83b e5a0 80bc d905 f23c 6e8b 56bd
00000380: 22f6 dfbd 2239 2ebe dfb5 b83d 531e febd
00000390: d561 073d 3c5f a5bd 0a82 493d faea 19bd
000003a0: 04ea a7bd 4c48 4a3d d79f 883d ccda 8a3d
000003b0: 9b41 fa3c 1bc2 c6bc 5423 f33c c798 54be
000003c0: 965a 6fbd ed87 2c3e e931 2cbe c841 2c3d
000003d0: 672c 5a3c 7467 213e 21ce b6ba 8db8 02be
000003e0: 01aa cf3d e84c 88bb d061 0a3e 1e08 073e
000003f0: 960b 3bbd 1c8b 113e 70fd e0bc 201e 2bbd
0.032440692 0.015482582 0.12944217 -0.032558527 0.1544395 0.04885112 0.17367375 0.03355769
0.081311576 -0.17456886 -0.0162168 -0.113934815 0.059175435 -0.050109044 -0.10707531 0.11679765
-0.052240133 0.06199129 -0.020293763 0.037983976 -0.09630945 -0.061067723 0.04949063 0.11312437
-0.17192002 -0.13832152 -0.020074293 0.0029756534 -0.014191159 -0.08662624 0.09352964 0.035709273
-0.004814585 0.04266058 -0.03713776 -0.11360079 0.13783146 0.026532797 -0.11265204 -0.053157378
-0.04204467 -0.0690909 0.059676033 -0.011548252 0.02614596 -0.06010167 0.16149953 -0.020473951
0.02477513 -0.030386439 -0.07705038 0.41094318 -0.27480054 -0.30443826 -0.08217027 0.40397495
0.71891797 -0.062307827 -0.29981005 -0.7471693 -0.3849031 0.06587599 -0.12048703 -0.31865764
-0.07071318 -0.29605678 -0.11058677 -0.055297844 -0.036851045 -0.29401043 -0.5662302 0.38426697
1.056889 0.027869567 -0.13837934 0.4211624 0.31248254 0.31961936 0.16813973 0.0003459945
0.17333631 0.96821284 0.32103333 0.055340942 0.18325898 -0.07029932 0.018040402 -0.17710425
-0.31491512 0.32028925 0.19211769 -0.34837204 -0.21751666 -0.28783283 -0.4608395 -0.28201076
-0.2946514 -0.13297369 0.27023852 0.2993803 0.031590424 -0.059503607 -0.09598582 -0.14508791
0.059551183 0.07780167 0.09405265 -0.06301603 -0.02465762 -0.057416838 -0.14298946 0.09853124
-0.1839 -0.13171585 0.071228415 -0.12252161 0.059208542 0.1400534 -0.026700523 -0.064931914
0.008529892 -0.012607758 -0.022256188 -0.051699415 0.12857921 0.17389095 0.15851185 -0.16608883
0.13918783 0.117033444 0.09261434 0.03872896 0.16686581 0.07061015 -0.060160592 0.13648972
0.11490521 0.11350495 -0.011478728 -0.022812396 0.029206682 -0.18853115 -0.012877217 -0.14734586
0.03735921 -0.07571465 0.0082424 -0.068711005 0.0048400736 0.0982247 -0.009514774 -0.05098467
-0.15028346 -0.13125584 -0.07310038 -0.13719746 -0.027109247 -0.07252691 -0.0066484828 -0.0050646453
0.12393311 0.038215432 -0.009304745 -0.02897221 0.0644664 -0.2025719 -0.07189299 0.007459436
0.055578507 -0.09888042 -0.047375374 0.21684138 0.09814931 -0.17277892 -0.005012185 0.050290767
-0.07667139 -0.01905683 0.06904244 0.01982122 0.0032621035 0.10186633 0.13556617 0.23808639
-0.008935701 0.1597561 0.026904186 0.11591559 0.014583299 0.1250147 -0.08845722 0.03375839
-0.07183419 0.03041234 0.08725533 -0.13962537 0.012395414 -0.032752097 0.1892584 -0.12761325
-0.18487985 0.03822643 -0.098187834 0.095228024 0.17181844 0.130661 0.0125832455 0.055438526
-0.05782622 -0.1189654 -0.14132495 0.13193992 -0.006466746 -0.035004225 -0.06484563 0.14859144
0.17141898 0.050844997 -0.07503554 -0.06852436 0.005132435 -0.01570172 0.029543804 -0.052379064
-0.10935618 -0.17013982 0.09019064 -0.12408128 0.033052284 -0.08074805 0.04919628 -0.037577607
-0.08198932 0.049385354 0.06671112 0.067800134 0.030548861 -0.024262479 0.029679932 -0.20761405
-0.058436 0.16848727 -0.16815914 0.04205492 0.01331625 0.1576212 -0.0013946929 -0.12765713
0.101398475 -0.0041595586 0.13513875 0.1318669 -0.045665346 0.14213222 -0.027464598 -0.041776776

lstm.bias_ih_l0 f4 [200]
00000000: 5e7f ef3d 1f84 d43d e0ac b5bd eb3a 2abe
00000010: 448b 39be 2b13 893e 2c23 043e db7c 3bbd
00000020: 5a6a 9dbe 5181 023e c126 47be 2015 db3c
00000030: ab8e 45be d0e3 acbe a10a cf3c 704c afbd
00000040: 06cb b6bd 6944 7cbe 8fbb 89be 5f49 18be
00000050: dced d73d db08 8fbe 7e25 ea3a 16e6 183e
00000060: 1d54 3bbd a652 50be a33f 5c3e 5604 923e
00000070: 3faf 7dbe c3e5 c83b f29d 93be 6fa3 0c3e
00000080: c2b3 97be bef0 9fbe c25a d3bd 10fc 3dbd
00000090: 7da0 e73d 5867 e0bd 3ab9 ed3d a866 5dbe
000000a0: ae0b cdbd d620 14be d0b9 82be aba3 34be
000000b0: 4bfb 953e 53b3 8bbe 47bd 55be c018 253d
000000c0: 1cc0 43be 2a88 393e b0ff 763d 1415 1e3d
000000d0: 09ac 1b3d 545a 43bc effe 8bbd af78 39bd
000000e0: 40c3 363e e744 04be 1652 b23d 7204 46bd
000000f0: 8ed6 41be ade6 e0bd 5c03 2fbe 0d54 1abd
00000100: 0602 c53c a6c6 e43d c04e af3d 70e3 26be
00000110: 5027 70be 69f5 133d c856 e23d 2dbc b13d
00000120: fe85 2ebe 9154 59be 302d aabd 076a d23d
00000130: a5a9 8d3d d553 c03d 9657 96bd 8847 4cbe
00000140: d53d 023e fcc2 bcbd 8748 dd3c d8b6 033e
00000150: 6ca6 723d 3244 a1be ef18 1c3e 09e4 aabe
00000160: a88d 9bbc 7177 a0bd 97c5 f1bd 765f 433d
00000170: 2d38 23be 3230 743d 333b b23d 2389 2b3d
00000180: 11aa 4dbd 5199 3bbd b4b8 c63d 4cd1 0d3e
00000190: 6f8a 9b3e d8d1 9fbd a246 803e 7a1a 693d
000001a0: 4783 593d 7a43 53be 3d51 0bbe 35b0 2d3e
000001b0: 0ca1 173e 425f 163e 1f65 0b3e 332a 27bd
000001c0: f193 763e 6b46 563e a652 86bc 76c1 f93d
000001d0: 49f4 c53c 5819 1dbe 5dd5 0abe a6a0 8f3d
000001e0: 6ac8 653e 227a 92be 9fd7 923e 634e bcbd
000001f0: e376 48be 6029 9fbe 24ab 7bbe a860 263e
00000200: 630f 71bd 7fe6 18be 16c3 56be 2a90 203e
00000210: d78a 8cbd ae8d 78be 1c7b 0cbe f5bd 63bd
00000220: 66d1 61bd a1e5 75be db40 423d ea29 32be
00000230: 967d ad3d ba86 da3d 17a3 06bd c585 653e
00000240: cf04 3a3e 7030 f53d d941 3a3e cf32 fd3d
00000250: bab5 54be 6544 efbd 287b 513e f3ad 863e
00000260: 17f5 4cbe c5e9 75be 1085 41be 2bbb 0f3e
00000270: 752a d63e 4dc2 1bbd 54ac 1fbe d282 db3d
00000280: 3e18 4abe 578b 24be 7708 2dbd 7888 3ebe
00000290: 4fc5 933d e102 44be 60ad 01be 1d0d 25be
000002a0: 0ed6 7ebe 9dbf 1ebe 839f 483e 6292 c2bd
000002b0: ce94 34be 4bc2 dc3d d7c5 62bd bc14 ab3b
000002c0: 08e0 2e3e 63cb 513c 7acd 85bc 328d ea3d
000002d0: 6765 68be 43df ba3d dfe1 08be 328a 5bbe
000002e0: 92d9 0abe 904b 6dbe 03f7 f93c b024 cabd
000002f0: f5fa 383e 13d5 a2bd fdff 30be 796d 71be
00000300: 9946 51be 0782 36bd 4c49 023e b3ca 8bbe
00000310: fd48 00be f878 3cbe 8c3e 47be 7a45 7d3e
0.11694215 0.103767626 -0.08870864 -0.16624038 -0.18119532 0.26772436 0.12904042 -0.04577337
-0.30745202 0.12744643 -0.19448377 0.026743472 -0.19292705 -0.33767557 0.025273623 -0.08559501
-0.089254424 -0.24635471 -0.26900908 -0.14871739 0.10543415 -0.27936444 0.0017863957 0.14931521
-0.045734514 -0.20344028 0.2150865 0.28518933 -0.24773882 0.0061309054 -0.2883144 0.1373422
-0.29629332 -0.3123836 -0.10320045 -0.046382964 0.113099076 -0.10957211 0.11607595 -0.21621192
-0.10011993 -0.14465651 -0.2553239 -0.1764056 0.29293284 -0.2728525 -0.20872985 0.040306807
-0.19116253 0.18118349 0.060302436 0.03859432 0.038005862 -0.011923391 -0.06835734 -0.04528111
0.1784792 -0.12916909 0.08707063 -0.048344083 -0.18929502 -0.10981498 -0.17091125 -0.037677813
0.024048816 0.11170702 0.08559942 -0.16297698 -0.23452497 0.036122713 0.110517085 0.0867847
-0.17043301 -0.21223666 -0.083094 0.10274129 0.06917123 0.0939099 -0.073409244 -0.19949162
0.127189 -0.09216878 0.027012123 0.12862718 0.059240744 -0.3149734 0.15243886 -0.33377102
-0.018988445 -0.07835282 -0.118052654 0.04769846 -0.15939398 0.059616275 0.087026976 0.04187883
-0.050211016 -0.04580051 0.09703198 0.13849372 0.30379054 -0.078036964 0.2505389 0.056910016
0.05310371 -0.20631209 -0.13605209 0.16961749 0.14807528 0.14684775 0.13612793 -0.04081173
0.24079873 0.209253 -0.016396832 0.12195103 0.024164336 -0.15341699 -0.13557954 0.07013063
0.22439733 -0.28608805 0.2868013 -0.091946386 -0.19576602 -0.31086254 -0.24577004 0.16247809
-0.058852565 -0.14931677 -0.20972857 0.15679994 -0.06862419 -0.24272797 -0.13718837 -0.05560108
-0.05513134 -0.24013378 0.047425132 -0.17398801 0.08471219 0.10670228 -0.03287038 0.2241431
0.18165897 0.11972129 0.18189181 0.123632066 -0.20772448 -0.11682967 0.20457137 0.26304588
-0.2001537 -0.24014957 -0.18898416 0.14036243 0.41829267 -0.038027097 -0.15593082 0.10718311
-0.1973581 -0.16068779 -0.0422444 -0.18606746 0.07215368 -0.19141723 -0.12663794 -0.16118284
-0.24886343 -0.15502782 0.19592099 -0.095005766 -0.1763489 0.10779246 -0.055364456 0.0052209776
0.17077649 0.012804839 -0.01633333 0.11452712 -0.22694932 0.09124615 -0.13367413 -0.21439436
-0.13559559 -0.23173356 0.030513292 -0.09870279 0.18064483 -0.07950797 -0.17285152 -0.23576917
-0.20437087 -0.044557597 0.12723273 -0.27303085 -0.12527843 -0.18405521 -0.19457453 0.24733534

lstm.bias_hh_l0 f4 [200]
00000000: e8ec 2b3d 285e e03c 10fd aabd 3662 f5bd
00000010: a8c7 20be a134 a93d b8e6 6c3e 84c5 a23d
00000020: 778d 5abe d08e 783e f5bd abbd d1fd afbd
00000030: b43e 3dbe 3fb7 e3bd 6750 0c3d a479 d9bd
00000040: f446 b1be 8aab 8cbc 1f27 a4be a451 77be
00000050: 6d7d 8c3e d092 7dbe 529f eebc 1244 653d
00000060: d1b5 5dbe e61a 31be f3e7 00bc 2663 1e3e
00000070: 64c1 53bd 2430 7abd 46b4 12be 9ca3 5dbd
00000080: e9aa a5be db42 97be 0fd7 71be 1b8e c73b
00000090: 05aa 5b3e c124 79be fd59 823d 5e57 78be
000000a0: 987a d1bd b01a 60be a661 33bc ea3f aebd
000000b0: fa1c 8b3e 5367 89bd a2af 8ebe 9793 0c3e
000000c0: 8ca0 88be 3330 a53c dda5 083e 1606 1fbe
000000d0: 5ad0 37bb 0183 533d bd57 a3be 6dd1 0b3e
000000e0: d20b fd3c c9b1 02be 92c1 14bd 4c7b e33d
000000f0: 33c4 21be 6c9b 33be 3eff a0bd 9228 b5bd
00000100: aa96 30bd 44a8 023e c887 cbbd 5b40 09be
00000110: 2bf6 afbe 851c 863d ce95 48bc b41f e1bd
00000120: 386d 56be 011b 1bbe 15fd 0ebe 69a3 a53d
00000130: c157 0dbd eb7b d43d d49d 13be fd37 ebbd
00000140: 82af f2bc c76c 6c3d f17e 19be 5823 d7bc
00000150: e3eb 10bc 9d92 1dbe 57da 303d 2a9b d9bd
00000160: b764 92bd c117 8a3c 04fd 50be a6ec d2bb
00000170: 19c8 42be 2492 31ba dcc5 4b3e 275f 283e
00000180: 6c11 76bd 31a2 993c 4eee 07be 7f23 05bd
00000190: a63c fb3d caf7 eb3b fe71 893e b69a 753e
000001a0: 71ef 853e 4c8e 7bbe 237b 86be f9a8 5e3e
000001b0: d602 b5bc 4266 113d 204f 043d 8606 1dbc
000001c0: 29ea 333d fcd8 9b3e 6e76 1a3a 5b97 233e
000001d0: 6f58 423e 4acd febb 5de7 acbe ef83 763d
000001e0: 6215 3b3e 0c8f ffbd 6ea3 ef3d bfa9 fd39
000001f0: a133 92bd df53 92be b316 22be 4652 ca3d
00000200: c6c8 4bbe a113 8bbe 21ee f1bd f5d1 093e
00000210: 4c55 fdbd 0cae c4bd a4a8 a4be 80b7 0abe
00000220: 90ed 96be cb7c 00be e7ed 923d f973 57be
00000230: 4be4 033e 9d31 963d 216a 363d 2123 033e
00000240: 228d 733e b495 7f3e 857a 823e e76b c53c
00000250: 047c 97be b594 87be 9f4d 353d 2f5f ab3d
00000260: 5c50 edbd 1973 e0bb 15fe 7bbd 5fe1 863e
00000270: 63a9 d53e 58fb d63d b10c 4dbe 8fc4 043e
00000280: 9b3b 35be 1d7a 343c a0cd 87be 79af a3be
00000290: 20be 1dbe 1545 25be 5c32 9ebe bf1c 26be
000002a0: 7502 6ebe e5c2 41be 94cc 783e 6386 77bd
000002b0: 518c 51be 0bd6 b43b 41b1 d1bd 0a5b 0d3c
000002c0: 269c 293e 3663 153e 44c5 3bbe 838a ffbd
000002d0: b03e febd 381f 9e3e b746 e5bd f189 89be
000002e0: 65c0 47be a10c c5bd ce81 283e 3eac 91be
000002f0: 2faf 4a3e d79e 91be 6910 44bd 30e2 0dbd
00000300: 552b d5bd 2039 7dbe 4fd3 b63d 5c50 0cbe
00000310: 3075 16be decb 20be e356 7dbe 7e3b 193e
0.04197398 0.027388647 -0.08349049 -0.11981623 -0.15701163 0.08261991 0.23134887 0.07947829
-0.21343027 0.24273229 -0.08385841 -0.085933335 -0.1848095 -0.11118936 0.034256365 -0.10618904
-0.34624445 -0.01717164 -0.32061097 -0.24152237 0.27439442 -0.24763036 -0.029128704 0.05597312
-0.21651389 -0.17295417 -0.007867801 0.1546751 -0.051698104 -0.061081067 -0.14326581 -0.05411111
-0.32356957 -0.29543194 -0.23617195 0.0060899383 0.21451576 -0.24330427 0.0636482 -0.24252078
-0.10228461 -0.2188518 -0.010948574 -0.085082844 0.27170545 -0.06709161 -0.27868372 0.13728176
-0.26684988 0.020164585 0.13344522 -0.15529665 -0.0028047771 0.051638607 -0.31902876 0.13654108
0.030889425 -0.12763132 -0.036317416 0.111075014 -0.157975 -0.17539757 -0.078611836 -0.08845629
-0.043112434 0.127595 -0.099380076 -0.13403456 -0.343675 0.065484084 -0.0122427475 -0.10992375
-0.20940101 -0.1514702 -0.1396373 0.08087809 -0.034507517 0.10375198 -0.14415675 -0.11485288
-0.029624704 0.057720926 -0.1498983 -0.02626197 -0.008845302 -0.1538796 0.043176975 -0.10625298
-0.07148116 0.01685703 -0.20409018 -0.006436902 -0.19021644 -0.0006773791 0.19899696 0.16442548
-0.06007521 0.018754097 -0.132745 -0.032504555 0.12267427 0.0072011696 0.26844782 0.23984799
0.26159242 -0.24566 -0.2626582 0.21744145 -0.022096079 0.03549791 0.032302022 -0.009584075
0.043924484 0.30438983 0.0005892281 0.15975706 0.18979047 -0.007775937 -0.33770266 0.060184415
0.18269876 -0.12478456 0.117010936 0.0004838239 -0.07138754 -0.28579614 -0.15828972 0.09878974
-0.19900808 -0.27163413 -0.118129976 0.13458999 -0.12369785 -0.09603509 -0.32159913 -0.13546562
-0.2947812 -0.12547605 0.071742825 -0.21040334 0.12880056 0.07333682 0.044534806 0.1280637
0.23784307 0.24959451 0.254841 0.024099303 -0.29586804 -0.26480642 0.04426348 0.08367764
-0.11587593 -0.006849658 -0.06152161 0.2634382 0.41730794 0.10497159 -0.20024373 0.12965606
-0.17698519 0.011015442 -0.26524067 -0.31969813 -0.15404558 -0.16139634 -0.30897796 -0.16221903
-0.23243125 -0.18922003 0.2429679 -0.060430896 -0.20463683 0.00551868 -0.102388866 0.008627662
0.16563472 0.14588627 -0.1833697 -0.12477591 -0.124143004 0.30883193 -0.111951284 -0.26863053
-0.19506986 -0.096215494 0.16455767 -0.28451723 0.1979339 -0.28441498 -0.047867212 -0.034639537
-0.104086556 -0.24728823 0.08927023 -0.1370253 -0.14693141 -0.15702769 -0.24740176 0.149641

linear.weight f4 [70, 50]
00000000: a379 7cbe b7fd c03c de6b b9bc 5bd2 f13c
00000010: 08df 953d acc1 a63d 21cc b03d b435 85bd
00000020: 0f14 e33b 8517 46bd 4bd2 1bbe 0bc1 b3bd
00000030: 8512 b0bd ef6c c33d 63e1 273d 088b c6bc
00000040: 8f3d ae3c 3178 983d 53c0 023e 6936 973c
00000050: 3e99 3fbe 750e ec3d 10f6 853c f8d3 e6bd
00000060: 6788 1c3e cd3b 173e 9a7f f73c 04d0 b8bd
00000070: ca95 063d 13f3 083d e132 c7bb 7304 653d
00000080: 9853 663d 89eb 0c3d 9e20 8c3d 4950 4d3b
00000090: 73a8 e93c d18f f83d 096b f9bd a5b9 883d
000000a0: df6e bfbd 6c7d 0dbe 75a6 3ebe 560b e3bd
000000b0: be90 35bd fc76 c4bd 1bb8 15bd d849 213c
000000c0: 89fd a73c 8f74 d23d f923 72be f255 213d
000000d0: df38 c5bd a3f8 3cbe 3289 713d 703d 203e
000000e0: bdae 993e 3d24 d0bd f561 37be be8d 9fbe
000000f0: 21f9 d5bd d0ab cc3d 459d 273d 350b 1d3d
00000100: 2ba1 aabd 4d77 35be e68b a4bd 790e 7cbb
00000110: 360a 433d f475 1fbb 6755 cbbe b791 41bd
00000120: 7783 ad3c 34fd 463e 78c5 f43d 5423 a73d
00000130: b05e 5e3e 66da fcbb 404a 163e 762a 333e
00000140: a7ea 92bd c88b c13d 80ad f73c 9307 3e3e
00000150: 6da3 54bd 19f9 e1bc 86b8 943c ecea f03d
00000160: 5aa1 25be 5f91 9b3d 3c91 23be 76e5 793d
00000170: 3e6c 4abe 21b2 6fbb b4de 1cbe a9f9 a93d
00000180: 35f5 f03b 29d0 1abe aa89 a23d 1192 b33e
00000190: ae0f 14be 2024 8e3d d707 3dbd 3e50 8ebd
000001a0: 1407 c3bd b0f1 4e3e 9451 ca3d 4dc0 efbd
000001b0: 9a63 9cbd c218 38be 9d16 6fbc 5362 093d
000001c0: 1276 693d 1cc4 17bd f5c2 6f3b 7c11 42be
000001d0: 5ee8 2ebc f981 af3d 6e66 e03b 2f21 adbd
000001e0: c514 2dbe 609a 433d 8598 093d 3d1a cfbd
000001f0: 8d8b 6e3d 8ff7 c53b 5abe 993d 2620 663c
00000200: 6eff e0bc 4207 343e 5bf5 15bd cb0c 043d
00000210: a4f4 2a3c 6b4c d03d 0ed5 eabc c549 ee3c
00000220: de3c c53d b82e dd3c 1d70 31be 94c7 4ebd
00000230: e22e 30be 9055 32be c382 8bbd 3fd2 0abe
00000240: 1911 f2bd 0ac5 80bd ae49 2fbd e0e7 8bbd
00000250: 588f 143d de02 0a3e 4453 07be 9eca 413d
00000260: 807b dcbd dd43 19bd 623f a23d 4118 a53c
00000270: ef92 173d bdf6 0cbe 535d ab3d d800 f53d
00000280: 7160 f33c be8e 4abe 7f0c 873d 8059 083e
00000290: f6ee efbd 033c 03be 3d0c 5b3d 1dc6 493c
000002a0: ff2c ca3b 9c6c 51bd b208 efbd dc26 e83d
000002b0: 0894 c3bc f73b 3ebe 956c c73d 653e f73d
000002c0: 8efa 3f3e 5f81 83be 0d2a db3d f6f2 1e3e
000002d0: a8c2 4abc b2dc d83d f9f7 3e3c ef06 44bd
000002e0: 00d1 073e ae70 2bbd 08ff a03e 4442 103e
000002f0: fc95 31be 21a4 9c3d 3a16 2fbe eb83 e4bc
00000300: 707a 03be d550 4f3b d97d 6cbd 346e d73d
00000310: 9f7c 17be 08cd 25be 90ed eebc a81d e83d
00000320: 1fe4 ccbe f27f 8a3d c074 16be 4956 67bd
00000330: 30dc 1dbe 7899 923e 0b49 643e e088 4ebe
00000340: 16e1 383d 1f48 6abe 43be 66be 3e30 383d
00000350: 63c5 d1bd d6c3 04bd 4393 58be 872d 18bc
00000360: 6bae a63d 29f9 bdbc 8243 b1bd 0cd0 e63d
00000370: 47e0 6cbe 9f64 873a 35ce d83c 5a5c d23b
00000380: d80e 0d3e 5a30 ab3c 42d2 363e 3eef 47be
00000390: c322 0abd a93a 543e b074 a1bc 1a89 6b3c
000003a0: 45ac 043e b0bc 3dbd 2c65 ae3d 91cf 3b3d
000003b0: 1b34 043e 4465 59bd 1f51 aebe f2e2 a53d
000003c0: 1669 36be 0b4d 85bd c5c6 e1bd dab6 91bd
000003d0: a071 d3bd 10f5 ddbd 8882 99bd b2c8 bebd
000003e0: 3208 4dbd b3fb 723e aa3e 25be 4977 8a3c
000003f0: 4cfd 24be 8644 8c3a 7c75 f3bd 0656 d93d
-0.24655776 0.02355848 -0.022634443 0.02951925 0.073179305 0.08142409 0.086326845 -0.06504384
0.0069298814 -0.048362274 -0.15216939 -0.087770544 -0.08597282 0.09542262 0.04098643 -0.024236217
0.021269588 0.074448 0.12768678 0.018458562 -0.18710801 0.11526195 0.016352683 -0.112708986
0.15286408 0.14768906 0.030212212 -0.09024051 0.032857694 0.03343494 -0.0060790633 0.055912446
0.056232065 0.03440431 0.06842159 0.0031328371 0.028522706 0.12136806 -0.121786185 0.06676034
-0.09347319 -0.13817376 -0.18618186 -0.110861465 -0.04432749 -0.09593007 -0.03655253 0.009844266
0.020506637 0.10276138 -0.23646535 0.039388604 -0.09629988 -0.18454222 0.05896873 0.15648437
0.30016127 -0.10163162 -0.17908461 -0.31162828 -0.10447908 0.09993708 0.04092147 0.038340766
-0.083315216 -0.17721291 -0.08034496 -0.0038460775 0.04761716 -0.002433178 -0.39713594 -0.047258105
0.021180851 0.19432527 0.11951727 0.08161035 0.21715808 -0.007716465 0.14676762 0.17496666
-0.07173663 0.09450489 0.030234098 0.18557577 -0.051913667 -0.0275846 0.018154394 0.11763558
-0.16174832 0.07596087 -0.15973371 0.061009847 -0.19767854 -0.003657468 -0.1531933 0.08299572
0.0073534497 -0.1511847 0.079364136 0.35072377 -0.14459106 0.06940484 -0.046150055 -0.06948899
-0.095228344 0.20209384 0.09878841 -0.117066 -0.07636185 -0.17978194 -0.014592794 0.033541035
0.056997366 -0.03705226 0.003658471 -0.18951982 -0.010675518 0.08569712 0.006848148 -0.08453595
-0.16902454 0.047754645 0.03359272 -0.101124264 0.058238555 0.006041474 0.0750701 0.014045751
-0.027465548 0.17580894 -0.036610942 0.032238763 0.010434303 0.101708256 -0.028666046 0.02908791
0.0963075 0.026999816 -0.17327924 -0.0504833 -0.17205384 -0.17415452 -0.0681205 -0.13556765
-0.11819667 -0.06287582 -0.042794876 -0.06831336 0.036269516 0.13477656 -0.13215357 0.04731237
-0.10765743 -0.037418235 0.079222456 0.020153167 0.03700536 -0.13765998 0.083674096 0.119630516
0.029709073 -0.19781014 0.0659418 0.13315392 -0.117155 -0.12815861 0.05347847 0.0123153
0.0061699147 -0.05112897 -0.116715804 0.11335537 -0.023874298 -0.18577562 0.09737507 0.12072448
0.18747923 -0.2568464 0.1070138 0.1552237 -0.012375511 0.10588969 0.011655801 -0.047858175
0.13263321 -0.041855507 0.31444573 0.14087778 -0.17342371 0.076484926 -0.17098323 -0.027894935
-0.12839675 0.0031633873 -0.057737205 0.105190665 -0.14793633 -0.16191494 -0.029166013 0.113337815
-0.40017793 0.06762685 -0.14692974 -0.056478772 -0.15416026 0.28632712 0.22293489 -0.20169401
0.045136534 -0.22879075 -0.22533517 0.044967882 -0.10242727 -0.032413326 -0.21149926 -0.009288198
0.08138736 -0.023190098 -0.08655454 0.112701505 -0.2313243 0.001032967 0.026465515 0.0064197006
0.13775194 0.02089708 0.17853644 -0.19524857 -0.033724558 0.20725502 -0.019708961 0.014375949
0.1295634 -0.046322525 0.08515391 0.045852248 0.12910502 -0.05307509 -0.34046265 0.08099927
-0.17813525 -0.065088354 -0.110242404 -0.07114954 -0.103244066 -0.108377576 -0.074956 -0.09315623
-0.050056644 0.23728828 -0.16137186 0.016902583 -0.1611225 0.0010701574 -0.11887643 0.10612111

linear.bias f4 [70]
00000000: e16c a4bd 617d 8b3d e6fe 95bd 86e2 253d
00000010: 412f f53d 0487 683c 7020 bbbd 29ba 96bd
00000020: c472 58bd c71b 30bd c485 983d 872c 7c3d
00000030: 12b8 ba3d d663 9d3d 7924 94bd d67a edbd
00000040: 4e87 363d 8e75 b63d 2ab2 e33d 145d 1c3d
00000050: 6877 f93d 27ee 883d ec93 3f3d 9d15 203d
00000060: 928d 353d 95f1 763d 622b 4b3c 35cc ba3d
00000070: f44c 1dbd ddc9 d03d 0741 96bd b2eb 013e
00000080: cf33 65bc 6fb8 963c 6edb c03d 1331 9bbd
00000090: d6af 793d 3440 9b3d c2de f83b 41e6 013e
000000a0: 4c02 52bb 5bb0 4d3c 4f45 953d e626 a9bb
000000b0: c719 ddbc c25d adbd b2a1 e73d b1d3 d3bd
000000c0: a2f7 c13d d1c3 00bd b77e 89bd 1369 0f3e
000000d0: 3f38 37bd 3e92 32bd a60b 1a3d d98a d73d
000000e0: 8956 05bd 51d5 f0bd 08ef 463d a2cc b23d
000000f0: b0df 5d3b 8a1a bdbd eb8f d63d 6f6f 73bd
00000100: ff91 fbbb f495 d13d 0c03 123d 3a2b b53d
00000110: 1c6a 57bd fe8e c4bc
-0.080285795 0.068110235 -0.07324009 0.040499233 0.119719036 0.0141923465 -0.09137046 -0.07359726
-0.052843824 -0.04299524 0.07447389 0.061565902 0.0911714 0.07685058 -0.07233519 -0.11595695
0.04456263 0.089091405 0.111179665 0.038174704 0.12180978 0.06686049 0.04677193 0.039083112
0.044324465 0.060288984 0.01240048 0.09120981 -0.038403466 0.10194752 -0.07336622 0.12687567
-0.013989403 0.018398492 0.09416853 -0.075777195 0.060958706 0.07580605 0.007594914 0.12685491
-0.0032044826 0.012554253 0.0728861 -0.0051621078 -0.02698983 -0.084651485 0.11310138 -0.10343111
0.0947106 -0.031436745 -0.06713622 0.14004926 -0.044731375 -0.0435965 0.037608765 0.1052453
-0.03255323 -0.11759437 0.0485678 0.08730437 0.0033855252 -0.092335775 0.10476669 -0.059432443
-0.007677316 0.102336794 0.035647437 0.088461354 -0.05259143 -0.023993965
