example_5_6_online_verification/predictors/alt_predictor.pth (torch, 122759 bytes, 6 tensors)

lstm.weight_ih_l0 f4 [200, 81]
000000 4f a6 0e be 06 57 8e 3d 35 39 7b 3d e7 f4 aa 3d
       -0.13930629 0.06950192 0.061333854 0.08347493
000010 16 69 f0 bd c1 24 30 bb b6 e0 1a be ff 7f 9f bd
       -0.117387936 -0.0026877376 -0.15124783 -0.07788085
000020 7f da 72 3d d8 25 35 be a8 21 2b bd a7 9a 13 be
       0.059290405 -0.17690217 -0.041780144 -0.14414464
000030 e7 21 13 3c b7 a5 a5 bd a8 38 00 bd 8d b6 33 be
       0.008980251 -0.08088248 -0.03130403 -0.17550106
000040 72 fe 8e 3d d0 55 d5 3c 61 6d 85 bd d7 f3 24 be
       0.06982125 0.026041895 -0.06515003 -0.16108643
000050 5e 2b 7f 3d 0b c2 86 bd a1 3d ff bd 5e 26 0e 3d
       0.062297218 -0.065799795 -0.12462927 0.03470456
000060 98 3a f4 3c 36 64 d7 3d 4f 1a 55 3d e0 32 15 be
       0.029813096 0.105171606 0.052027043 -0.14570189
000070 27 54 a1 3d 7b 3e 88 bd 5e 09 87 3d ff 1e d1 3d
       0.07877379 -0.06652542 0.065935835 0.1021099
000080 72 eb 96 3d c9 2e 02 be c0 b2 99 bd d4 b0 7f bd
       0.073691264 -0.1271316 -0.07504797 -0.062424496
000090 be 05 f1 3c c3 0d 8f 3d 36 e2 ea 3d c6 6d 8e 3d
       0.029421683 0.06985047 0.114689276 0.06954531
0000a0 f1 20 e3 3d 5c c5 e5 bd b6 01 ca bd 3b 69 fe 3d
       0.110902674 -0.11219284 -0.098636076 0.12422415
0000b0 b9 c4 9f 3b a6 39 d0 bd 76 e4 27 3d b2 bf 9e bd
       0.004875746 -0.101672456 0.04098936 -0.07751407
0000c0 29 b3 09 3e dc cc 81 bd 91 7d 3e bd 32 48 da bd
       0.1344725 -0.06337902 -0.04650647 -0.106583014
0000d0 3d 4d 01 3e 1a 57 b3 3d d1 84 93 3d 31 12 d6 bd
       0.1262712 0.08756848 0.07203067 -0.104526885
0000e0 19 6e 62 3c bf 0b 2f bd fb 86 c9 bd 47 f7 b6 3d
       0.013820195 -0.04273581 -0.098401986 0.08933883
0000f0 d7 c9 7f bd 35 18 8b 3d b0 ae 1b 3e dd 22 8f 3c
       -0.06244835 0.067917265 0.15203357 0.017472679
000100 1b 30 03 3e 16 62 19 3d 1e c5 71 bd 65 14 b9 3d
       0.1281132 0.037447058 -0.059025876 0.09037093
000110 d8 85 a3 bc 97 b7 21 3e cf f5 27 3e 43 f6 2a 3e
       -0.019961283 0.1579269 0.16402362 0.16695504
000120 de d7 13 3e 04 8a aa 3d 2c 3f 30 3d 54 b4 0a 3e
       0.14437816 0.08327106 0.043028995 0.13545352
000130 38 46 59 3d 39 a6 41 3e 6d 6e af bc fe 37 2e bd
       0.05304548 0.18911065 -0.02141496 -0.042533867
000140 36 ba 51 3e 8b fd 77 bd c1 d1 fb 3c 02 17 a1 bd
       0.2048119 -0.06054453 0.030739667 -0.078657165
000150 5f fe cf 3d 9f ef 81 bd c3 47 01 be 36 24 d1 bc
       0.10155939 -0.06344532 -0.12625031 -0.025529962
000160 36 a4 8e 3b e8 b2 72 3d c0 cd c6 3c 92 b8 e0 3d
       0.0043530716 0.05925265 0.024268031 0.10972704
000170 40 cb 97 3d b4 6a b3 bd 99 0d f4 3d e9 56 a6 bd
       0.07411814 -0.087605864 0.11916656 -0.081220455
000180 21 e7 96 bd 0e 01 aa 3d 44 a6 ac 3d 55 6a f6 3c
       -0.07368303 0.083009824 0.0843015 0.03008
000190 e2 9f f8 bd 05 97 f2 3d 64 58 e5 bd 60 8c 74 3c
       -0.1213987 0.11845211 -0.111985 0.014926046
0001a0 8e 7b b2 3d ec 38 66 bd 79 e9 fe 3d b9 12 60 3d
       0.087149724 -0.05620663 0.12446875 0.054705355
0001b0 31 55 2e 3d 3e 68 f7 3c a2 84 2b bc d9 67 f8 bd
       0.042561714 0.030201074 -0.010468634 -0.12129182
0001c0 25 b1 1e bd 77 f0 be bd 64 22 e9 3d 37 fd f9 3c
       -0.038743157 -0.09323209 0.113835126 0.03051625
0001d0 43 63 44 3c 15 8f c3 bd 47 a3 16 3d 7e a2 1d 3e
       0.011986556 -0.09548775 0.036776807 0.15394017
0001e0 2c f8 a1 3d 40 5d 40 3d cc ab 41 bd 11 58 c0 bd
       0.07908663 0.04696393 -0.04728298 -0.09391797
0001f0 45 37 c9 bd 91 6c 8f 3c 02 12 67 bd 9a ac ca 3d
       -0.09824995 0.017507823 -0.056413658 0.098962024
000200 e3 93 57 bd 34 21 9c b9 81 92 84 bc 60 65 38 3e
       -0.05263127 -0.00029779377 -0.01618314 0.18007421
000210 5b f8 b9 3d d0 80 d9 3c fd 35 b6 3d d4 63 3e 3e
       0.09080573 0.02655068 0.08897016 0.18592769
000220 a9 66 14 bc 25 1f c8 bc a9 ec 47 3d 93 d3 a5 3d
       -0.009057679 -0.024428913 0.04880968 0.08096995
000230 44 b9 4f 3e 00 da 37 bd 33 37 86 3d f1 89 be 3d
       0.20285517 -0.044885635 0.06553497 0.09303654
000240 f4 6b 18 3e 71 be 7b bc 96 c7 e2 3d af a6 0c 3a
       0.14884931 -0.015365229 0.11073224 0.0005365414
000250 7b 3d 40 3e 09 ec a0 3d 81 e9 b2 3d 09 97 0b bd
       0.18773453 0.0785752 0.087359436 -0.034079585
000260 4a 7d d9 3c 26 a8 3a 3e 5c 49 1f 3e 56 8d cc 3c
       0.026549 0.18228206 0.15555328 0.024969738
000270 d9 46 90 bc 2e 76 45 3d 3e 64 0e 3e 5f 3b 84 3e
       -0.017611908 0.048208408 0.13905427 0.25826547
000280 81 58 3d 3e 9f 33 1c 3d 12 78 8e bd 3b 4c 16 3d
       0.18490793 0.038135167 -0.06956495 0.036693793
000290 fd 7d a6 3d 5b 9c 4a 3c f4 d3 c5 3d b2 99 71 3d
       0.08129499 0.01236638 0.096595675 0.058984466
0002a0 aa cb 86 3d 44 fd 99 3d 17 86 83 3d a9 fc d3 3d
       0.065818146 0.0751901 0.0642206 0.103509255
0002b0 e1 ce 01 bd 6d 5f 84 bc cb f7 0a be f5 d7 00 bc
       -0.031691436 -0.016158784 -0.13571088 -0.007863988
0002c0 7f da bc 3c e2 fa 2b 3d bb 42 0e be 00 f0 72 bd
       0.023053406 0.041987307 -0.13892643 -0.059310913
0002d0 40 c2 f4 3b e6 6e 81 bd 2b ed ab bd 97 f9 b1 3d
       0.0074694455 -0.0631998 -0.083948456 0.086901836
0002e0 80 b4 6c 3d 85 1d 9d bd 0c 36 b4 3d dc 7e 1d be
       0.057789326 -0.07671646 0.08799371 -0.15380424
0002f0 70 73 4d 3d fa b7 5b bd 56 4b cb bc eb d5 27 3d
       0.050158918 -0.05364225 -0.024816196 0.040975492
000300 dc 11 22 be 2a af e7 3d f8 5c 17 bd da c2 ae bd
       -0.15827125 0.11312707 -0.036953896 -0.08533259
000310 b3 05 02 be 88 51 57 3d f4 ba fb bd 70 ac 01 be
       -0.12697487 0.05256799 -0.12291518 -0.12663436
000320 a8 b6 93 3d d8 2d 1d bd 8c d7 1c bd 78 be 3f bd
       0.07212573 -0.038373798 -0.0382915 -0.046812505
000330 b0 93 fe bd af bd 24 bd 2b eb 8e bd 78 f5 b4 3d
       -0.12430513 -0.04021996 -0.069784485 0.08835882
000340 c0 bb fb 3a 9b 72 9d bc 86 a3 51 3d 0e 8f 64 bc
       0.0019205734 -0.019219687 0.05118134 -0.0139501225
000350 b6 e4 01 bd 48 0a ad bd 30 79 ec bd ce 35 9c bd
       -0.031712256 -0.084492266 -0.11546552 -0.0762745
000360 43 a9 b5 3c 57 d6 de bd 96 ca 8f 3c b4 c7 46 bd
       0.022175437 -0.10880726 0.017552655 -0.048530295
000370 cb 74 23 3d e4 4e 37 bc 3d 5d 27 3d 7b 87 28 be
       0.039906304 -0.011188243 0.040860403 -0.16457932
000380 7e 83 9d 3d 7a e6 8c bd fd 89 f7 bd f5 e5 d1 bd
       0.07691096 -0.068798974 -0.12086866 -0.10248939
000390 4c a9 04 be 37 e9 d7 bd 79 d1 32 be 6f 6f f9 bc
       -0.12955207 -0.10542529 -0.1746272 -0.030448643
0003a0 8b 58 31 3d 37 ba 07 be cd c5 ec 3c 8c 55 ac bd
       0.04329733 -0.13254629 0.028902913 -0.08414754
0003b0 7b 2e 30 be 4f 68 3c be 6c f0 a1 bc 54 75 52 be
       -0.17205231 -0.18399166 -0.019767962 -0.2055257
0003c0 b2 3d 44 be ba cb 92 bd 88 83 37 3d ab 54 32 bd
       -0.1916416 -0.07167764 0.044803172 -0.043537777
0003d0 7b aa 46 3c 07 e6 0d be 0c 87 e2 3d 97 51 6a bd
       0.012125607 -0.1385728 0.110609144 -0.057206716
0003e0 f5 c2 ca 3d 47 a0 27 bd 33 4e 7b 3d da f0 c4 bd
       0.09900466 -0.040924337 0.061353873 -0.09616251
0003f0 14 49 92 bd 22 8b 03 3e c6 1a 42 3d fe 77 23 ba
       -0.07142845 0.12846044 0.047388814 -0.0006235837

lstm.weight_hh_l0 f4 [200, 50]
000000 bc 96 1e 3d da 94 e5 bd 2f d4 6f bd 50 50 2c 3c
       0.03871797 -0.11210032 -0.058551963 0.010517195
000010 8d b8 d5 bd 52 38 ec 3d 0d ca 01 3e 99 11 94 3d
       -0.10435591 0.1153418 0.12674733 0.07229919
000020 5e e3 e7 bc bf 5a 94 bb 75 fb e2 3c 23 33 9f 3d
       -0.02830666 -0.0045274193 0.027707795 0.077734254
000030 c1 a0 c2 3d 29 7d d7 3d a4 85 80 bd a4 97 e9 3b
       0.095033176 0.10521919 -0.0627549 0.0071286727
000040 95 67 c7 bc df 75 6a 3d ec 71 8f bc 6d a2 bd 3d
       -0.024341384 0.057241317 -0.017510377 0.09259496
000050 d5 d1 9c bd 43 a1 bf 3b 90 c9 40 3d 5e 61 3b be
       -0.0765721 0.0058480813 0.047067225 -0.18298861
000060 e7 d0 a7 3d 05 24 e8 bd fe 1e 87 bd 7f 94 59 3c
       0.08194142 -0.11334995 -0.06597708 0.013280033
000070 06 75 8b bd 38 c8 e3 3c 76 11 df bc fa ad ce bc
       -0.0680943 0.027805433 -0.027230006 -0.025229443
000080 65 05 52 bd 6a fe 40 3d 82 59 05 3d 63 6d 52 3d
       -0.051274676 0.04711763 0.032556064 0.05137385
000090 78 96 03 be 54 5d bb 3d 9b 86 61 3c e7 1e fb 3c
       -0.12850368 0.0914866 0.013765003 0.030654384
0000a0 9d 6b 57 bd 7d 7c a3 bb 99 e2 c5 3d 0a 66 2f 3d
       -0.052592862 -0.0049892054 0.09662361 0.04282192
0000b0 63 83 0f 3e ae d1 05 3e c5 82 58 bd 19 41 be bd
       0.14014964 0.13068268 -0.052859087 -0.0928976
0000c0 20 da 01 be 0e 12 de 3d 85 76 33 3c 0f 2b 31 bd
       -0.12680864 0.108432874 0.01095355 -0.043253954
0000d0 6c 31 0c 3d 0c 93 98 bd f6 0c 3d 3d 81 c1 cd bc
       0.03422682 -0.07449922 0.04615494 -0.025116684
0000e0 a4 f5 a4 bd 37 fa 98 bd a3 0e 12 bd 8f 5b 24 be
       -0.08054665 -0.074696 -0.03565849 -0.16050552
0000f0 33 0d 27 3e b1 b0 26 bd 86 ea da 3c 09 85 f6 3d
       0.16313629 -0.04069585 0.026723158 0.12037093
000100 9b b4 9c 3d 45 b1 d7 3d 2a f6 71 3c 3b be 0c bd
       0.07651635 0.10531858 0.014768163 -0.034361105
000110 47 de b1 3c 4e 4e 30 3d 1e aa cc bd 8f 25 f7 3d
       0.021712435 0.043043427 -0.09993385 0.120677106
000120 8b 59 0a bd 96 e2 e0 3d 16 79 9e bc 7e ac e8 3d
       -0.0337768 0.10980718 -0.019344848 0.11361025
000130 cb f6 50 bd c5 22 49 3a 4c ca c9 bd 74 1c c5 3d
       -0.05101661 0.00076727226 -0.09853038 0.09624568
000140 88 32 8a 3d 7d 0c 05 3c b1 b7 80 bd dc ca cf 3d
       0.06747919 0.008120653 -0.06285036 0.10146114
000150 fb 15 ad 3e 5d b4 2e bd 25 be 74 3d 9f 8b 63 bd
       0.33805832 -0.042652477 0.05975165 -0.055553075
000160 c0 50 2a 3e a4 e9 ae 3d 28 ad d4 bd 9f e7 39 3d
       0.16632366 0.08540657 -0.103845894 0.045386907
000170 c5 df b7 3b 4c 87 bd bc b7 24 df bd 0c 00 43 3d
       0.005611392 -0.023135804 -0.10895675 0.047607467
000180 c7 4e f9 bd ef 59 9f 3c a4 95 73 bd ba 00 f7 3c
       -0.12173229 0.019452063 -0.05946888 0.030151714
000190 a9 0a b4 3d 10 7c 81 ba 62 4a 4d 3d 77 83 23 3e
       0.08791096 -0.0009878892 0.050119765 0.15968119
0001a0 3a 24 52 bd fd a5 05 bd ef 77 23 3e d6 17 36 3d
       -0.05130408 -0.032629002 0.1596372 0.044456325
0001b0 6e 68 86 3d 6a f2 e3 3d 08 9f 1d 3e 69 04 d5 bd
       0.06562887 0.11130221 0.15392697 -0.10401232
0001c0 61 f9 ae bb f6 64 93 bd d6 5f 9e 3d 73 94 8a bc
       -0.005339787 -0.07196991 0.07733123 -0.01691649
0001d0 f6 ba aa 3d ec ee b6 bd ff 19 d4 3d 7a 29 85 bd
       0.08336441 -0.089322895 0.10356521 -0.06502052
0001e0 55 0a c2 bc 53 86 9e bd 28 7d 05 3e f2 73 98 39
       -0.023686567 -0.07740464 0.13036025 0.00029078085
0001f0 70 f3 53 3d 1b eb 28 3e aa 1a 33 3d 3f aa 1b bc
       0.051745832 0.16495936 0.0437266 -0.009501039
000200 77 62 0f be 37 46 32 3d 4a dc 20 be ef b8 c3 3d
       -0.14002405 0.043523993 -0.15709034 0.09556758
000210 5c 47 15 be 70 c4 25 be c9 ab c1 bd a0 0d 07 be
       -0.14578003 -0.16188216 -0.094565935 -0.13188791
000220 eb 34 19 3e 56 d2 e4 bd 23 58 84 3d 78 67 be bd
       0.14961593 -0.11172931 0.06462123 -0.09297079
000230 ad be 0c 3e 98 b0 30 be 58 50 46 3d f2 a7 85 bb
       0.13744612 -0.17254865 0.048416466 -0.0040788585
000240 2b 3a 86 3d 60 6e 15 3d ad ab e1 bb 6f fc 73 3d
       0.065540634 0.036482215 -0.0068869204 0.05956691
000250 7b b0 4a 3d 7a b2 33 bd cf 1e a1 3d 13 4b 48 3c
       0.04948471 -0.04387138 0.078672044 0.01222493
000260 91 cf 87 bc a3 ae f3 bc 04 8d d7 bd c6 75 cc bb
       -0.016578468 -0.02974636 -0.105249435 -0.0062396256
000270 bf 90 16 bd d6 72 21 3e 00 db 83 bd 07 15 b4 bd
       -0.036759134 0.15766463 -0.06438255 -0.08793073
000280 b7 49 05 3d 76 df 35 bd f7 36 5d 3d 07 c2 c5 bd
       0.032541003 -0.044402562 0.054007497 -0.096561484
000290 47 95 9d 3b 5a 28 46 3d 01 ef f9 bd 2b 52 5c 3d
       0.004809055 0.048378326 -0.122037895 0.0537893
0002a0 00 6c 4d 3d 82 ba cb bd 8d 28 97 3d 8a 36 e8 3d
       0.050151825 -0.09947683 0.07380781 0.113385275
0002b0 cf 65 f2 bc b7 ec 17 3d 1f d1 a7 b9 5e f7 74 bd
       -0.029589562 0.037090983 -0.0003200853 -0.05980622
0002c0 26 05 12 3d d9 46 da 3c 01 54 8d bd 5d b0 f8 bd
       0.03564944 0.02664511 -0.06900788 -0.121430136
0002d0 86 72 3a be 69 0f e4 bc 19 19 73 3d 18 4d 01 3d
       -0.1820775 -0.02783938 0.059350107 0.031567663
0002e0 19 36 ba 3d 54 9d 95 b9 9d 9c 59 3c c8 74 a5 3d
       0.090923496 -0.00028536713 0.013281968 0.08078915
0002f0 5f 26 01 bd 33 06 99 bd 33 3f e3 3d ad b6 8e 3d
       -0.031530734 -0.074718855 0.11096039 0.069684364
000300 1d e0 7f bc 36 61 19 be df e3 f0 bd da f2 44 be
       -0.015617398 -0.1497849 -0.11762213 -0.19233266
000310 3d 83 79 3d 59 4a 0a bd 1a 6e 71 bd 48 e7 ff bd
       0.060916174 -0.03376231 -0.05894289 -0.12495285
000320 ea 80 1d 3e a4 01 31 3d 1c 84 ed bd 11 a7 8f 3c
       0.15381208 0.043214455 -0.115974635 0.017535718
000330 30 75 75 3c 62 10 9f 3d 8b 75 a9 bc 86 7e 11 3e
       0.014981553 0.07766797 -0.020685932 0.14208421
000340 80 a0 ea 3d 3d b1 a7 3d fe b4 41 3d 1e 7b 38 bd
       0.11456394 0.081881024 0.04729175 -0.04503929
000350 ad 13 e5 3d 75 c9 c8 bd a1 7b 7e 3d 67 e3 a6 3d
       0.111853935 -0.0980405 0.06212962 0.08148842
000360 8e 7c c0 3d 65 79 05 bd 71 9d 2f 3e 57 0f 4e bd
       0.09398757 -0.032586474 0.17149903 -0.050307598
000370 16 16 94 3d cd 78 f8 bb 25 68 46 bd a6 c9 d6 3c
       0.07230775 -0.00758276 -0.048439164 0.0262192
000380 6c 01 ac bd 34 5f b3 3c de c5 1a be 58 57 7a bc
       -0.08398709 0.021895982 -0.15114543 -0.015279613
000390 80 e3 10 be 87 f7 91 3c 32 62 73 bd 9b 38 d7 bd
       -0.14149284 0.017818226 -0.05941982 -0.105088435
0003a0 06 24 a8 3d e7 f2 dc 3d e5 59 75 3e d1 10 cc bd
       0.08209996 0.107885174 0.23960073 -0.09964145
0003b0 cf b2 d5 bd ad 74 32 3d ac 19 b0 3c 46 b3 14 3d
       -0.10434496 0.043568302 0.021496616 0.03630378
0003c0 cb b2 00 be 5a 6b 22 be 8f 7e f9 bd 74 46 10 be
       -0.12568204 -0.15861264 -0.12182342 -0.14089376
0003d0 42 42 94 3d cd 74 24 be ad 05 2c be 72 00 8b 3c
       0.072392 -0.16060181 -0.1679904 0.016967986
0003e0 af 5c 8b 3d ab 66 ce bd de 3f 12 3e c6 44 d1 3d
       0.06804787 -0.10078176 0.14282176 0.102181956
0003f0 45 0c c4 3d 8f 81 21 3d ad 8a b9 bd 03 00 dd bc
       0.09572653 0.039430197 -0.090596534 -0.026977545

lstm.bias_ih_l0 f4 [200]
000000 7a f0 8e bc 94 28 02 be eb de 98 bd e8 a9 04 bd
       -0.017448653 -0.12710792 -0.07464393 -0.032388598
000010 87 85 b5 3c d2 ad e3 3d 83 21 6e 3d 25 e7 94 3c
       0.022158397 0.11117138 0.058137428 0.018176625
000020 e7 66 6b bd e1 6f 74 bd 28 5e 68 3d c1 7c f6 bc
       -0.057471182 -0.05967701 0.05673042 -0.030088784
000030 e8 e1 bc 3d 6c 62 0c 3d d5 97 07 3e 4d 45 fa 3d
       0.09222776 0.03427355 0.13241513 0.12220249
000040 61 38 cb 3d dc 99 0a 3d 26 50 a4 3d b2 96 9b bc
       0.09922863 0.033838138 0.080230996 -0.018992756
000050 4c 26 9a bd 81 96 92 bd 4c ac 7b 3d d0 ce 5a bd
       -0.07526836 -0.071576126 0.061443612 -0.053419888
000060 0e b7 90 3d 09 8e f2 bd cb 30 4e 3e 33 e2 00 be
       0.07066165 -0.11843497 0.201358 -0.12586288
000070 4a 84 6c 3d d1 5a 07 3e 68 00 92 bd 1d c2 e9 bc
       0.05774335 0.13218237 -0.07128984 -0.028534943
000080 14 84 a4 bc 63 04 1b be 05 33 c4 bc e5 e0 d0 3d
       -0.020082511 -0.15138392 -0.02395011 0.10199145
000090 de 8a 21 be 03 66 66 bd 06 4b bc bd 8a c8 2c 3d
       -0.1577563 -0.05624963 -0.09193997 0.042183436
0000a0 fb e0 b6 3d 9e 0b 76 3d 3c b4 23 3d 19 64 42 bd
       0.0892963 0.060069673 0.039966807 -0.04745874
0000b0 16 61 46 3d 23 45 d3 bc 50 2c ec bb ef c5 01 3e
       0.048432432 -0.025789803 -0.007207431 0.12673162
0000c0 7e 0f 19 3e 2f 43 96 3d 56 b8 2b 3d fc cd 16 bd
       0.14947316 0.07337033 0.041923843 -0.036817536
0000d0 0e 7e 98 bd 9f cc 91 3d 30 c8 03 bd 7d 45 92 bd
       -0.07445918 0.071191065 -0.032173336 -0.0714216
0000e0 20 b4 8f 3d ed 11 fc bd 83 8d 29 be 77 19 10 be
       0.07016778 -0.123081066 -0.16557889 -0.14072214
0000f0 a0 8c bf 3d 98 b1 1b be 48 44 29 be 05 be 99 bd
       0.09352994 -0.15204465 -0.16529953 -0.075069465
000100 75 44 1d 3d 88 21 1e 3c 60 2f a6 bd 6b 7e 8e bd
       0.038395364 0.009651549 -0.08114505 -0.06957706
000110 63 52 a4 bd 98 63 0c be 39 a5 7a 3c 15 77 c0 3d
       -0.080235265 -0.13709867 0.015298181 0.09397713
000120 e3 a1 59 bd 4b 97 d9 3d 2c 8a 0e be 8f f0 d6 bc
       -0.053132903 0.1062456 -0.13919896 -0.026237754
000130 12 2a 13 3e 36 e0 b5 bc 80 02 bc 3d b1 ae 56 3d
       0.14371517 -0.022201639 0.09180164 0.052412692
000140 39 ae cb 3d 0e c0 3c bd 57 67 8f bd bb 11 c9 bd
       0.0994534 -0.046081595 -0.070021324 -0.09817835
000150 c5 25 61 be e4 5f 48 bb 5b 96 84 bd 22 7c b1 3d
       -0.21987064 -0.0030574733 -0.064739905 0.086662546
000160 d4 e4 94 bc a6 be 1e bd fd f1 3e bd eb 45 72 3b
       -0.01817552 -0.038756035 -0.046617497 0.0036967944
000170 13 b5 90 bc 8b c6 aa bd 46 f0 6b bd 55 05 e9 3d
       -0.017664468 -0.0833865 -0.05760219 0.1137797
000180 44 09 d6 bd 1d f2 6f bd 28 fc ab bd 10 e6 29 3d
       -0.10450986 -0.058580507 -0.08397704 0.04147917
000190 d2 10 1d bd 27 78 bb bd a3 d9 54 bd e0 39 05 3e
       -0.03834612 -0.091537766 -0.051965367 0.13010359
0001a0 6c 08 32 bb 16 77 a6 3d fc 8c ec bc bd bd ed bd
       -0.0027165664 0.081281826 -0.02887582 -0.11608455
0001b0 09 5b 6b 3d a5 d9 f8 3d 4b bf 99 bc 9a fb 87 bc
       0.057459865 0.121508874 -0.018767973 -0.016599465
0001c0 ff 17 e9 3c 2f 8a 2e 3e 32 03 8a 3d 3c ed f0 3d
       0.028453825 0.170449 0.06738891 0.11763999
0001d0 7a 41 55 3b 4c 66 9c bd 99 3c 0f 3c c8 7d 55 bd
       0.0032540248 -0.07636699 0.008742475 -0.052121907
0001e0 20 c5 71 ba 7c 7f 2a bd 31 d4 b9 bd 82 9a 9b bd
       -0.00092227943 -0.041625485 -0.090736754 -0.075978294
0001f0 3b 80 49 bc da 74 3e bd 87 4c 6d 3d 6c 52 e6 3d
       -0.012298639 -0.046498157 0.05793431 0.112461895
000200 a5 45 8b 3d 6e d7 32 bd 4a e5 0d 3e f2 f4 4f 3d
       0.06800393 -0.04366248 0.13856998 0.050770707
000210 5c b1 a1 bc d1 f4 91 3d a6 60 e9 3d e0 cb 41 bc
       -0.019737892 0.07126773 0.11395387 -0.011828393
000220 f1 a3 87 3c a3 28 79 3c 39 76 8d 3d 38 d6 1e be
       0.016557666 0.015207442 0.06907315 -0.15511405
000230 e1 b7 80 3d ea 92 f0 3d 87 e5 19 3e 82 7c e0 bd
       0.06285072 0.11746772 0.15028964 -0.10961248
000240 b1 a3 7d 3c cc 68 42 3c 9b 54 02 3e e3 d3 81 3c
       0.015480922 0.011865806 0.12727587 0.015848106
000250 e6 d4 da bd c0 74 1c bd 0e 77 aa bc f7 d8 3d be
       -0.106851384 -0.03819728 -0.020808723 -0.18539797
000260 78 98 86 3d ba 6a 15 be f9 38 07 be 62 8c 77 3d
       0.0657205 -0.14591494 -0.13205327 0.060436614
000270 ad 33 8a 3d b4 dd 36 3d f8 9b 2c 3d 29 ed ae bd
       0.067481376 0.044645026 0.04214093 -0.085413285
000280 62 4b 9f 3d 3f 38 df bd 06 ee 21 be 32 22 94 3d
       0.0777805 -0.108994 -0.15813455 0.07233085
000290 87 87 d4 3d 5d da 97 3d f6 60 a2 3b fc 55 0a bd
       0.10377412 0.07414696 0.0049554063 -0.033773407
0002a0 9e 3b 92 bb fe c4 09 3d ad 43 45 bd 2e 88 c8 3d
       -0.0044626733 0.033635132 -0.048160244 0.09791599
0002b0 65 6b 99 bb a1 ef 4d bc 44 d8 e6 bd 26 7c cb bd
       -0.004681992 -0.012569339 -0.11271718 -0.09935789
0002c0 cc 21 27 3e 7c f3 db 3c c8 b9 32 bd 57 b1 79 bd
       0.16321486 0.0268495 -0.043634206 -0.06096014
0002d0 36 20 d4 3d dd 4c 2e 3c 7d 9e 8d 3d 30 18 d6 bd
       0.10357706 0.010638443 0.06914995 -0.10453832
0002e0 b5 00 c8 3a f3 61 fa bd 94 59 43 3d fd 9e 27 bd
       0.0015259 -0.122257136 0.04769285 -0.040923107
0002f0 65 a9 42 3d 16 5b 7a 3d 4e f3 5e 3d 38 99 b4 bb
       0.04752483 0.061122023 0.054431252 -0.005511429
000300 95 01 27 bd 48 fc aa bd 3b 43 0d bc aa 10 ee bd
       -0.040772993 -0.083489 -0.008621986 -0.11624272
000310 f2 86 96 3c f9 1b 84 3d 90 cf ad 3d 30 33 07 3e
       0.018374894 0.06450648 0.08486855 0.1320312

lstm.bias_hh_l0 f4 [200]
000000 44 9d d9 3b 9d e9 27 be 23 83 55 3d c1 01 15 3d
       0.006641062 -0.1639771 0.052127015 0.036378626
000010 cc 59 97 bd a9 f6 6b 3d 54 29 19 bd 16 59 9d 3d
       -0.07390174 0.05760828 -0.03739293 0.076830074
000020 01 46 98 bd 1f f2 9f bd 9a 5a 4d bb 0e 0d b1 3d
       -0.07435227 -0.07809853 -0.003133452 0.08645068
000030 b7 f4 1b be d1 17 72 bd 49 3b c9 ba 99 cf 21 3e
       -0.1523007 -0.059104744 -0.0015352751 0.15801848
000040 15 81 9c 3d 30 6f dd 3d 4d 1b 3b bd 27 c4 97 3c
       0.07641808 0.10812223 -0.045680333 0.01852615
000050 01 06 ba 3c 8b 92 10 3e 64 8a 29 be 98 f0 06 be
       0.022707941 0.14118402 -0.16556698 -0.13177717
000060 d5 02 01 3d 10 b0 3d bd 3d 65 bd 3d f5 67 1e be
       0.03149684 -0.046310484 0.09247825 -0.15469344
000070 3d a6 02 3e ba 12 ad 3d f7 58 b6 bc 06 e0 26 be
       0.12758727 0.084508374 -0.022259219 -0.16296396
000080 b7 e1 93 3d 2c 8c 34 be 6b 99 8b bc 7b 85 01 3e
       0.07220786 -0.17631596 -0.017040929 0.12648575
000090 33 5e 08 be 1e 69 ae 3d 2a 8a fd bc b0 70 43 bd
       -0.13317184 0.08516143 -0.03094967 -0.04771489
0000a0 4c d6 76 bd 45 d5 42 3d 71 c1 15 3e 4d f3 03 be
       -0.060262963 0.04756667 0.14624573 -0.1288578
0000b0 5b 0e 18 3e ac b7 d8 3d e9 1a 0b 3e 70 5c f3 3d
       0.14849226 0.10581908 0.13584484 0.118828654
0000c0 63 91 d6 3c 4e af 01 3d 44 d4 bf bd 03 d2 47 bd
       0.026192373 0.031661324 -0.09366658 -0.048784267
0000d0 0b c6 12 3d ab 25 88 bd 9a cf 44 3c cb a4 a7 bb
       0.0358334 -0.066478096 0.012012387 -0.0051160804
0000e0 e9 cd 04 bd a9 da 1a be d0 bb 97 bd ab 49 2c be
       -0.032422934 -0.15122475 -0.07408869 -0.16824977
0000f0 57 3e 0f be f3 f0 83 3d e0 bf df bd ff 52 3e bc
       -0.13988625 0.06442442 -0.10925269 -0.0116164675
000100 94 f1 95 3c 5a b9 28 bd f5 6f 12 3d 8c ae ed bd
       0.01830367 -0.04119239 0.0357513 -0.11605558
000110 ff 70 cd 3d 6a 5b 23 be 21 49 cb 3c 00 95 36 3d
       0.10031318 -0.1595284 0.024815144 0.04457569
000120 bd cf 16 be 40 e2 32 3d 06 98 c7 3d bb 60 96 bc
       -0.14727683 0.0436728 0.09745793 -0.018356672
000130 8d 50 68 3d 34 58 fb 3c ba d5 29 bd 62 07 83 3c
       0.056717444 0.030681707 -0.04146359 0.015994731
000140 e7 d3 80 3d 13 c5 ff bd 67 eb 59 bd d1 a5 15 be
       0.06290417 -0.12488761 -0.053203013 -0.14614035
000150 7b 01 6b be 01 39 ca 3d c4 8d 85 3d 10 c6 a0 bb
       -0.22949784 0.09874154 0.0652118 -0.0049064234
000160 13 dd a9 3d 1c 73 11 be 8b 9d 63 bd 2e 07 05 bd
       0.0829412 -0.14204067 -0.055570167 -0.03247755
000170 f7 07 e6 3c d0 bc aa 3d 1b 32 1f be 77 d7 b6 3d
       0.02807997 0.083367944 -0.15546457 0.089278154
000180 2a 2c ae bd 39 e7 1c bd 83 da da bd 86 68 eb 3d
       -0.085045174 -0.03830645 -0.10686209 0.11494546
000190 f5 f6 13 3d 6c bb 1f 3e 35 b3 af bd 02 28 b1 3d
       0.03612419 0.1559884 -0.08579103 0.08650209
0001a0 6e 13 dd bc 26 f2 15 3e 6d f0 74 bd db 84 9e 3d
       -0.026986804 0.14643154 -0.0597996 0.07740184
0001b0 79 3f 0a 3e 30 dd c6 3c a6 a7 11 bc e4 40 9b 3d
       0.13500775 0.024275392 -0.008890068 0.07580736
0001c0 9b 7d 31 bd 3c c0 2a 3e c4 26 36 3d 59 8b e5 3d
       -0.043332677 0.16674894 0.044470564 0.11208219
0001d0 4a 10 3e bd db da d4 3b 7a 40 7a bd b0 c0 e6 3c
       -0.046402253 0.006495816 -0.061096646 0.028168052
0001e0 fe 61 6e bd 0f e2 ed bd 1b d6 98 3d f4 24 03 bc
       -0.05819892 -0.11615383 0.074627124 -0.008004416
0001f0 96 b6 9b 3d 8a 1e d4 3c f2 74 b6 3b 03 79 76 3d
       0.07603185 0.025893468 0.00556814 0.060174
000200 40 c0 00 3e bf f1 e5 3d fb 7b b5 bd cd c2 32 be
       0.12573338 0.1122775 -0.08861538 -0.17457123
000210 b1 38 65 3d 53 63 27 ba b0 01 aa 3b f1 b8 bd bd
       0.05596227 -0.0006385345 0.0051881894 -0.092637904
000220 d7 dc bc 3d d9 45 87 bd e3 31 f9 bd 47 76 d6 bd
       0.09221809 -0.06605119 -0.12167718 -0.10471778
000230 d6 9e b0 ba cd 00 f7 ba 9a c6 e1 3d c1 b0 80 3d
       -0.0013475071 -0.0018844843 0.11024208 0.06283713
000240 c2 ee 45 bd 0d 67 fd bc 2e 22 83 3d 9b 32 08 3e
       -0.0483234 -0.030932928 0.06403004 0.13300554
000250 c5 bc 6c 3c 44 32 f5 3d ed 9f 25 3d 67 94 87 3d
       0.014449303 0.11972478 0.04043572 0.066201024
000260 e4 7a 9c bd 5b 9d cb 3d c0 d6 78 3d b7 b8 c6 3d
       -0.07640627 0.099421225 0.060751677 0.097032
000270 f3 d5 26 3d e6 e7 20 be 11 ce 2b 3c 6d 46 8d bd
       0.04073138 -0.15713462 0.010486142 -0.06898198
000280 18 fa 2e 3e 07 02 aa bd 18 22 e6 bb 9f e8 c9 3d
       0.1708759 -0.08301168 -0.0070231073 0.09858822
000290 27 70 d3 bd 83 46 91 bd 68 7d f3 3d bc dc d5 bd
       -0.10324126 -0.07093527 0.11889154 -0.10442492
0002a0 92 c4 09 be 70 ff 11 3e 5e 37 a4 bb 7a 0d ac bd
       -0.13453892 0.14257598 -0.005011483 -0.08401008
0002b0 9d 96 02 be 7c 57 ed 3d fa 64 17 be dd 0d e1 bc
       -0.12752767 0.11588952 -0.14784613 -0.02747243
0002c0 a4 b8 fe 3d 74 59 21 bd ac 52 af bd 0b db bf bc
       0.12437561 -0.03939195 -0.0856069 -0.023419878
0002d0 d3 e5 6e 3d 84 1f a9 bd ff 09 87 3d 1b cf 04 be
       0.058324646 -0.08257964 0.065937035 -0.1296963
0002e0 a6 9b 02 3e cc 8a 29 be 2d 7e fe bd 93 1c f5 bd
       0.12754688 -0.16556853 -0.1242641 -0.11968341
0002f0 c9 86 7b 3d 23 d5 ef 3d 0f 9d 38 3d 2b e0 36 bd
       0.061407838 0.117105745 0.045071658 -0.044647377
000300 31 bd 3a bd c9 7d 7c bd 37 2d 6f 3a 94 39 4e 3d
       -0.045590583 -0.061643396 0.0009123864 0.05034788
000310 41 82 b0 bd e2 64 8b bd 52 62 f0 bd cd fd ad 3d
       -0.08618594 -0.06806351 -0.11737503 0.08495674

linear.weight f4 [70, 50]
000000 48 d2 77 bd a1 06 06 be f8 b7 48 bd 08 cf 55 bd
       -0.060503274 -0.13088466 -0.04900357 -0.052199394
000010 72 02 bb bd 2e 38 89 bd 55 a0 7a 3d 3b 21 08 3e
       -0.09131326 -0.067001686 0.06118806 0.13293926
000020 d6 ae 51 3c 32 87 4b bd 87 9b 0a 3e 55 7a 14 3e
       0.012798032 -0.04968948 0.13535891 0.14499791
000030 3d 0e ea bc 68 0e 01 be ab f8 d8 bd 60 68 c8 3c
       -0.028571242 -0.12603152 -0.10594305 0.024463832
000040 ba c5 96 3d bb 13 d3 3c b1 04 7e 3d be e1 2a 3e
       0.07361932 0.025766244 0.062016193 0.16687676
000050 15 1a 89 bd e1 c6 c0 bd d0 a5 09 be 2e f5 98 3d
       -0.06694428 -0.09412933 -0.13442159 0.07468639
000060 70 cc e7 bd f4 3c db bd 8c 59 4f bd 94 39 e7 3b
       -0.1131829 -0.10704985 -0.050622508 0.0070564244
000070 bb 58 08 be 0f 78 4f bd a5 39 86 bd ba ea 0f 3d
       -0.13315098 -0.050651606 -0.065539636 0.035135962
000080 1b c8 16 3e cb b6 08 3e 8c 03 59 3d bb fd 96 3d
       0.14724772 0.1335098 0.0529819 0.07372614
000090 7f 10 01 3e 4d 2e 00 3d c0 b1 99 bd c4 cf 4c 3d
       0.12603949 0.031294156 -0.07504606 0.05000283
0000a0 29 14 d8 bd 9d 86 a7 3d a1 aa 86 3d d3 e2 84 bd
       -0.1055072 0.08179972 0.06575514 -0.06488576
0000b0 35 9d b4 3d 54 5f c9 bb e8 0d a7 ba ab 06 06 bc
       0.08819047 -0.006145397 -0.0012745233 -0.008180301
0000c0 6d 99 1d be 5a e0 a5 3b f4 30 02 be 91 30 47 3d
       -0.15390559 0.005062145 -0.12713987 0.0486303
0000d0 73 f7 a7 3d 8b 53 57 bd 44 60 2d bd d2 73 3a be
       0.08201494 -0.052569907 -0.042328134 -0.18208244
0000e0 9a da 21 3d 7b c1 39 3c 08 16 88 3d ba b1 29 3d
       0.039515115 0.011337633 0.06644827 0.04142926
0000f0 39 99 c7 bd 52 db e3 3d fc 5a 90 3d 88 c8 8e bc
       -0.09746022 0.111258164 0.07048604 -0.017429605
000100 4c c5 6d bd f7 72 6b 38 ed 7c d3 3c 67 fa 06 3e
       -0.058049485 5.6135435e-05 0.025816405 0.13181458
000110 88 50 ab bd 02 36 cf 3d d8 e5 0d 3e 82 88 c4 3d
       -0.083649695 0.10117723 0.1385721 0.09596349
000120 f4 4d 7b bd 39 56 ab 39 87 3d 93 3d 2e ae 06 3d
       -0.06135364 0.00032679903 0.0718947 0.032880954
000130 bc 09 64 bd 0a 72 f2 bd c4 b5 27 3c f1 77 1a bd
       -0.055673346 -0.118381575 0.010236207 -0.03771204
000140 06 e3 8a 3c 6c 8e 3d 3e 91 b4 0a bc 62 9e 93 bb
       0.016953956 0.18511361 -0.008465902 -0.0045049647
000150 13 0f 15 bc 96 1f e0 3d 03 35 24 be d1 79 1b 3c
       -0.009097832 0.109435245 -0.16035847 0.0094894925
000160 96 d3 8b bd 9a 80 91 bd da de 8f 3d 94 ed 18 bd
       -0.06827466 -0.07104607 0.070249274 -0.037335947
000170 0a 7b d7 3d 81 de e2 3c 58 ca 2f 3e c3 2b f3 bd
       0.10521515 0.027693989 0.17167032 -0.11873581
000180 92 0b 1c 3e 54 b7 80 bd 5e a3 ae bd 6b 45 75 3d
       0.15238789 -0.06284967 -0.085272536 0.059880655
000190 84 f4 4b bd 34 63 72 bc 9a 75 5b bc e5 7c 02 be
       -0.049793735 -0.01479416 -0.013394738 -0.12742956
0001a0 39 60 14 3e 61 d2 55 3d 85 48 71 3d 44 06 92 bd
       0.14489831 0.052202586 0.05890705 -0.07130101
0001b0 7f b1 c0 bd ff 95 b6 3c 90 7b 64 3c da 75 9e 3d
       -0.09408855 0.02228832 0.013945475 0.07737322
0001c0 39 97 6c bd 46 2f 59 3d 75 b9 1e be 5a e2 14 3c
       -0.057761405 0.0530236 -0.15500434 0.00908717
0001d0 17 48 c6 bd 57 12 ae 3d 82 27 ec bd 2f 77 2a 3e
       -0.09681719 0.08499592 -0.11530973 0.16647027
0001e0 e7 86 c7 3d 1f 22 9c 3d 06 b3 48 bb 8a ef ce bc
       0.097425275 0.076236956 -0.0030624284 -0.025260706
0001f0 7c f7 39 bd 6c 21 7d 3a 55 97 49 3d 6b 99 37 bd
       -0.045402035 0.00096561643 0.049216587 -0.044824045
000200 77 d0 8c bd 8c e8 5d bc fe 8c 69 bd de 87 b2 bc
       -0.06875699 -0.013544213 -0.057019226 -0.021793302
000210 0f e5 9e 3d 4f 80 5c bd de 44 23 bc bc ed ae bc
       0.07758533 -0.053833302 -0.00996515 -0.021353595
000220 92 bf 08 be 96 43 52 3d d5 84 00 bd 54 54 e5 3d
       -0.13354328 0.051333986 -0.03137668 0.11197725
000230 ac 7b 18 3e ce 89 19 3e 77 06 af bd 23 64 09 bd
       0.14890927 0.14993975 -0.08546155 -0.033542763
000240 d2 67 b3 3d dc 21 db 3b e6 6c 1b 3d f4 06 13 bd
       0.087600365 0.006687386 0.03794565 -0.035895303
000250 94 57 b9 3c 50 9d 99 bd 09 1f db b9 61 5c a5 bd
       0.022624768 -0.07500708 -0.00041794058 -0.080742605
000260 c1 09 5d be ed de e6 bc ad 36 f4 3d 14 b7 24 be
       -0.21585752 -0.028182471 0.11924491 -0.16085464
000270 1b cc f2 bc d8 1b c0 39 37 67 83 3d dd 8b 04 3d
       -0.02963834 0.0003664184 0.06416171 0.032359947
000280 74 39 e6 3d 3e 3d 98 bd f6 f7 a2 3d d8 9a 8c 3d
       0.11241427 -0.07433556 0.07957451 0.068654716
000290 b8 6f 0a be c8 9f 05 be 57 d8 66 bd b0 32 10 3e
       -0.1351918 -0.13049233 -0.05635866 0.14081836
0002a0 10 21 3e bd c1 40 c0 3d 79 48 fc 3d eb d4 cf bd
       -0.04641825 0.09387351 0.123185106 -0.10148033
0002b0 7f 44 93 3d e0 3a 06 be 44 db f1 3a 80 d2 ff bd
       0.07190799 -0.13108397 0.0018452187 -0.124913216
0002c0 75 d9 51 be 6e 07 94 bd 36 71 4c be 0f e2 60 3d
       -0.2049311 -0.072279796 -0.19965062 0.054903086
0002d0 be a5 07 be 25 18 4c 3d 83 69 bf 3d 41 08 ae 3d
       -0.1324682 0.049827714 0.09346297 0.08497668
0002e0 57 31 ac bd 08 0b 3f 3d 35 a0 8b 3c 8b b1 df 3b
       -0.08407848 0.04664138 0.017044166 0.0068265847
0002f0 67 56 60 3d 37 44 a1 bc 94 2f a6 3d 3a 98 8b 3d
       0.0547699 -0.019685848 0.081145436 0.06816144
000300 ab 62 bb bc f5 4a d4 3d 42 70 8b 3d e0 e4 9b bd
       -0.022874197 0.103658594 0.06808521 -0.07612014
000310 a3 0a fb 3d 74 6f cc bc 6f 6b 2f 3d 0f f0 4f be
       0.12257888 -0.024955489 0.042827066 -0.20306419
000320 0e 5e 8a bd e2 42 f0 bd 96 98 06 be 0f db e1 bd
       -0.06756221 -0.11731507 -0.13144144 -0.1102811
000330 a9 da 5d 3d 5f c4 fc 3c f0 cb 28 be 15 05 c8 bc
       0.05416361 0.030855356 -0.16484046 -0.024416486
000340 38 fc ba bd 21 e5 ae 3d 29 36 8d bd 6e 68 e8 3d
       -0.09130138 0.085397966 -0.06895096 0.113480434
000350 5c 44 a2 bd 06 f8 76 3d fc c6 65 3d ec 6c fa bd
       -0.07923195 0.060295127 0.05609797 -0.122278064
000360 e2 68 da bc 35 74 3a 3c 25 02 d7 bd 96 36 14 3d
       -0.02666134 0.011380245 -0.10498456 0.03618487
000370 5b 57 b0 ba d6 69 dc bd 44 1b 8a bb 11 47 11 bd
       -0.0013453768 -0.10762374 -0.004214676 -0.035468165
000380 e9 e8 d0 3c 59 7b cb 3d b4 d6 49 be d4 b4 8f 3d
       0.025501685 0.09935636 -0.19710809 0.07016912
000390 4b 6f 8d bc d4 bd c3 3d fd 40 ba bd 0a 5f f6 3d
       -0.017264983 0.09557691 -0.09094427 0.12029846
0003a0 a9 a2 ba bb bc b2 b3 bd b4 e3 b4 bd 3a 65 83 3b
       -0.00569566 -0.08774325 -0.088324934 0.00400987
0003b0 21 50 6a bd 5a 92 de 3d 01 a9 aa 3d 90 39 40 3e
       -0.057205323 0.10867758 0.08333016 0.18771958
0003c0 1b bb 81 bd 2a 2b ba 3c 14 fa 7b 3c e0 b4 f0 bd
       -0.06334516 0.02272566 0.0153794475 -0.11753249
0003d0 ab 95 3c bc 36 bb 91 bc 2b f7 f2 3d 3d 2c 84 3b
       -0.011510293 -0.017789464 0.1186355 0.004033594
0003e0 e6 b1 56 3a f7 af 4c be 0d c2 1e bc c0 19 47 be
       0.0008189961 -0.19989 -0.00968982 -0.19443417
0003f0 c0 fb 0a bc 36 f7 80 bd 0c f7 25 3e eb ec b6 3d
       -0.008482873 -0.06297152 0.16207522 0.08931907

linear.bias f4 [70]
000000 cf 7a 83 bd 24 fd 87 bd f9 05 25 3d d2 cc ad 3d
       -0.06419908 -0.066400796 0.0402889 0.08486332
000010 55 ee a8 3d 6b 10 10 bd 9c 04 8a 3d b8 80 0b 3d
       0.08248583 -0.035171907 0.067391604 0.034058303
000020 b6 36 bb 3c 62 77 13 3d b2 a6 94 3c 01 56 97 b9
       0.022853237 0.036002524 0.018145893 -0.00028865042
000030 ab 79 88 3d 64 fa 18 bd 49 0a 4d bd 18 87 04 3e
       0.06663831 -0.037348166 -0.050058637 0.12942159
000040 91 bd af bd 67 44 4d bd ed 17 2e bc e9 38 24 3d
       -0.08581079 -0.05011406 -0.010625822 0.040093336
000050 dd c4 79 3b c4 12 3b 3c e2 51 98 3d d1 fb d9 3c
       0.0038111724 0.011418048 0.07437493 0.026609333
000060 30 8d 3e bd 0c 45 ca bd ef cf 4c bc e3 a9 41 3d
       -0.046521366 -0.09876451 -0.012500747 0.047281157
000070 ef a3 b7 3c f3 78 b2 3d f7 51 e8 3a 8d 73 5e bd
       0.022417037 0.087144755 0.0017724623 -0.054309417
000080 80 04 10 3c 2a 4b 97 bd 96 e9 bb 3d de 60 86 bd
       0.008790135 -0.07387383 0.09175412 -0.06561445
000090 0d 80 e5 3d c1 9e 64 3c e9 48 fd 3d 35 f6 c6 3d
       0.112060644 0.0139538655 0.12367422 0.09714929
0000a0 e2 f7 a3 bc 7c 83 b4 3d 78 38 08 3e 18 2b 9c 3c
       -0.02001566 0.08814141 0.13302791 0.019063517
0000b0 d2 83 2f bc 1b 27 87 bc d5 7a 6c 3d 1e 89 28 bd
       -0.010712581 -0.01649814 0.05773433 -0.04114639
0000c0 f3 8c 92 3d ce 2a 18 bd f4 5a fd 3d 2e 17 40 bd
       0.0715579 -0.037150197 0.123708636 -0.046897106
0000d0 54 ad bc bd 27 45 5c 3d 1c d6 24 bd 2f 52 80 bd
       -0.09212747 0.053776886 -0.040243253 -0.06265675
0000e0 28 e6 04 3d c9 32 19 3d a7 e4 d5 3d 0c 02 d6 3d
       0.032446057 0.037401948 0.104440026 0.10449609
0000f0 68 bf a0 3d 54 0e 41 3d 94 95 ab 3d 23 98 77 bd
       0.07849008 0.047132805 0.08378139 -0.060447823
000100 fe 7e 8d bb 08 ea 42 bd 5e ec e0 3d 8d 95 ec bc
       -0.004318117 -0.04758647 0.109825835 -0.028879905
000110 a1 15 25 bd 68 02 97 3b
       -0.04030383 0.004608441
