example_5_6_online_verification/predictors/vel_predictor.pth (torch, 122759 bytes, 6 tensors)

lstm.weight_ih_l0 f4 [200, 81]
0	0x3e0dbb0d	0.13840885
1	0x3c41e0d6	0.01183339
2	0xbd412b69	-0.04716054
3	0x3e29931c	0.16560024
4	0x3d8aee7c	0.067837685
5	0x3d961b38	0.0732941
6	0xbc629ad8	-0.013830863
7	0x3ca17bd8	0.019712374
8	0xbd9f6b12	-0.07784094
9	0xbbcab110	-0.0061856583
10	0xbd8e5feb	-0.06951889
11	0x3dbbf886	0.091782615
12	0x3c016ec6	0.007899946
13	0xbda7ad63	-0.08187368
14	0x3d322152	0.043488808
15	0x3da03658	0.07822865
16	0x3e00f8b7	0.12594877
17	0x3c25f39e	0.010128884
18	0x3e1db25f	0.15400074
19	0x3ca3a4bc	0.019976012
20	0x3ce1c740	0.02756083
21	0xbb178e28	-0.0023125503
22	0xbd649928	-0.055810124
23	0x3ca26d2b	0.019827446
24	0xbd04ef8c	-0.032455012
25	0x3d2ff4e7	0.042958166
26	0x3dc2009f	0.09472775
27	0xbdae8469	-0.08521349
28	0xbc303dfe	-0.010756968
29	0x3d21d620	0.039510846
30	0x3db24035	0.08703653
31	0x3ca0dfb7	0.019637926
32	0x3e3a7900	0.1821022
33	0x3cf50d04	0.029913433
34	0x3e0235ff	0.1271591
35	0x3e10e66b	0.14150397
36	0xbd8d67f0	-0.0690459
37	0x3d4dfc21	0.050289277
38	0x3d8f9f53	0.070128106
39	0x3d06982b	0.032859962
40	0xbd1f6667	-0.038916018
41	0x3dbe5b12	0.09294714
42	0x3e2b04f8	0.16701114
43	0x3d9cf9d8	0.076648414
44	0x3c48cc7d	0.012255785
45	0x3dfc29d0	0.123126626
46	0x3d6b8556	0.057500206
47	0xbd31a780	-0.04337263
48	0xbce755bd	-0.028239125
49	0xbd1b59e9	-0.037927542
50	0x3d8618a4	0.065476686
51	0x3e28f8e7	0.16501199
52	0x3e12bf73	0.14330845
53	0x3be75de0	0.0070607513
54	0x3d553cd3	0.05205996
55	0x3d0d867a	0.034552075
56	0x3d75172a	0.059836544
57	0x3e10735d	0.14106508
58	0x3d9c27db	0.07624789
59	0x3d6498eb	0.055809896
60	0x3e124d5f	0.14287327
61	0x3e14a48f	0.14515899
62	0x3e2e30ea	0.17010847
63	0x3b42daa3	0.0029732368
64	0xbd388a70	-0.0450539
65	0x3b3cede6	0.0028828322
66	0xbda45114	-0.08023277
67	0xbcf863e9	-0.030321078
68	0x3e4a3e1f	0.1975026
69	0x3e1d368b	0.15352838
70	0x3e2f8cbd	0.17143531
71	0xbda39082	-0.07986547
72	0x3de446c6	0.111463115
73	0x3d31afb5	0.043380458
74	0xbd77bfca	-0.06048564
75	0x3d4f2a59	0.050577495
76	0x3daa03d7	0.08301514
77	0x3df07b62	0.117422834
78	0x3dc0f8c0	0.09422445
79	0x3c434bc3	0.0119199185
80	0x3da6938b	0.0813361
81	0xbe2b9298	-0.1675514
82	0xbe0fd7f4	-0.14047223
83	0xbe0d6bc5	-0.13810642
84	0xbd720658	-0.05908808
85	0xbc9b8797	-0.018985553
86	0x3dab880a	0.08375557
87	0xbdca4899	-0.09877128
88	0xbc8a0258	-0.01684682
89	0xbe0536b5	-0.1300915
90	0xbbedc6a0	-0.007256344
91	0xbe2e9b19	-0.17051353
92	0xbd5bcad1	-0.053660218
93	0xbe1704b9	-0.14747895
94	0xbe0fd4f5	-0.1404608
95	0xbdd3d745	-0.10343794
96	0xbc66f0d4	-0.014095504
97	0x3d94d069	0.072663136
98	0xbe0a1c82	-0.13487437
99	0xbe092b29	-0.1339537
100	0xbe166a3d	-0.14688964
101	0x3d744336	0.05963441
102	0xbd987126	-0.07443456
103	0xbdb771e9	-0.089572735
104	0x3db61ca0	0.088921785
105	0x3d98e18b	0.07464894
106	0x3c77b3a8	0.015118517
107	0x3d93152a	0.07181771
108	0x3cb34607	0.021883978
109	0x3cf20011	0.029541047
110	0x3d8f9d85	0.07012466
111	0x3d8e6d8d	0.06954489
112	0xbdf6e6b3	-0.12055721
113	0x3c868e86	0.016425382
114	0x3d1bd92f	0.03804892
115	0xbe2d6613	-0.1693347
116	0x3cf7e975	0.030262688
117	0xbe3892e5	-0.18024786
118	0x3dbb41c4	0.09143403
119	0xbda37719	-0.079817005
120	0x3d0b29df	0.03397548
121	0xbe294943	-0.16531853
122	0x3cde0578	0.027102217
123	0x3cb1148c	0.021616243
124	0xbbb04b9c	-0.005380107
125	0x3d5bb971	0.053643648
126	0xbc9837cd	-0.018581295
127	0x3d03ba71	0.032160226
128	0xbde4efb5	-0.11178533
129	0xbd9ac13a	-0.07556386
130	0xbe385533	-0.18001251
131	0xbe35817d	-0.17725177
132	0x3d6c65b1	0.057714168
133	0xbe3978aa	-0.18112436
134	0xbc645972	-0.013937341
135	0xbdbbd553	-0.09171548
136	0xbcda8028	-0.026672438
137	0xbdf04d57	-0.117335014
138	0xbcf956bc	-0.030436866
139	0xbde86942	-0.11348201
140	0x3d95136e	0.072790965
141	0xbe3a383e	-0.18185517
142	0xb88d784a	-6.7458095e-05
143	0xbd066cfc	-0.03281878
144	0x3d773cc6	0.060360692
145	0x3d8a278f	0.067458265
146	0x3d98d39e	0.07462238
147	0x3ca53fe1	0.020172061
148	0xbda2e856	-0.07954471
149	0xbe3683a4	-0.17823654
150	0x3d6a319a	0.05717621
151	0xbda59459	-0.08084936
152	0xbc98c80e	-0.018650081
153	0x3c3965a8	0.011315741
154	0xbda27263	-0.07931974
155	0x3d5c8cf6	0.05384537
156	0xbdd205c5	-0.10255007
157	0x3ca4c918	0.02011542
158	0xbd89b716	-0.06724374
159	0xbdea1f48	-0.11431748
160	0xbe464db8	-0.19365585
161	0xbdc12e6d	-0.09432683
162	0xbc910a69	-0.01770516
163	0x3c9182e4	0.017762609
164	0x3b5aa6c1	0.0033363553
165	0x3c8a294e	0.016865399
166	0x3d852f1b	0.06503125
167	0xbdab5197	-0.083651714
168	0x3e10d08e	0.14142057
169	0xbd98942f	-0.07450139
170	0x3c360264	0.011108968
171	0x3e1c388d	0.15255947
172	0x3d0ea744	0.034827486
173	0xbc6f621f	-0.014610796
174	0x3de9d5f1	0.11417759
175	0xbda15ab8	-0.07878631
176	0x3d097a45	0.03356387
177	0x3dbc2a04	0.09187701
178	0xbd916258	-0.07098836
179	0x3ce678b3	0.028133726
180	0x3c3511a9	0.011051574
181	0x3d61844c	0.05505781
182	0x3cb7dbc1	0.022443654
183	0xbd8e1a60	-0.069386244
184	0x3e24bc3e	0.16087434
185	0xbd4061e2	-0.04696835
186	0xbbaa54ca	-0.005198096
187	0x3dce552a	0.100748375
188	0x3e2d25fc	0.16909021
189	0x3e32c26f	0.17456983
190	0x3e208ee2	0.15679505
191	0xbd128161	-0.035767917
192	0xbd79cc87	-0.060986068
193	0x3d5b6ab2	0.05356855
194	0x3de8300a	0.11337288
195	0x3e35eb5b	0.17765562
196	0x3e189433	0.14900284
197	0xbd863b8f	-0.06554329
198	0x3b9e8283	0.0048373356
199	0x3db5adc0	0.08871031
200	0xbd2bd8c7	-0.04195478
201	0x3df59f62	0.119932905
202	0xbacd3299	-0.0015655338
203	0x3dc6fa5d	0.09715722
204	0x3d6065ce	0.05478459
205	0x3cc40998	0.023930356
206	0xbc8ded1a	-0.017324973
207	0x3cc53de3	0.024077361
208	0x3d971ad5	0.07378165
209	0x3be425ba	0.006962505
210	0x3dba7534	0.09104386
211	0x3e39a24b	0.18128316
212	0xbd53604d	-0.05160551
213	0xbb012c27	-0.0019710155
214	0x3e0a91fd	0.13532253
215	0x3e32ac75	0.174486
216	0x3da17e69	0.07885439
217	0xbdbd5920	-0.09245515
218	0x3c85aaff	0.016316889
219	0xbd53e67b	-0.051733475
220	0x3de3989d	0.11113093
221	0x3cd381b6	0.025818687
222	0xbca96655	-0.020678679
223	0x3deef41c	0.11667654
224	0x3d51d8b1	0.051232044
225	0x3ce7a5e6	0.028277349
226	0x3d52c559	0.051457737
227	0xbd9916e4	-0.07475069
228	0x3d609b27	0.054835465
229	0x3dc7d8c3	0.09758141
230	0x3d82d0b5	0.06387464
231	0x3cec3206	0.028832447
232	0x3e0b2ea9	0.13592018
233	0xbbb001f8	-0.0053713284
234	0x3e18d9d9	0.14926852
235	0xbd94509e	-0.07241939
236	0x3d5b943a	0.053608157
237	0x3b97444f	0.0046162973
238	0x3e381ab3	0.17978935
239	0x3e4bed0f	0.1991465
240	0x3cbda4a5	0.023149798
241	0x3e35a180	0.17737389
242	0xbcfac6ac	-0.030612312
243	0xbd9e0eaa	-0.07717641
244	0x3dea84af	0.11451089
245	0xbd1d16cc	-0.03835182
246	0x3e2a46bb	0.16628544
247	0x3d33b444	0.043873087
248	0x3e1c66e0	0.15273619
249	0x390c5896	0.00013384441
250	0x3ddb7469	0.10715563
251	0x3dc24d46	0.09487395
252	0x3d5b7cfe	0.053586
253	0x3dc8a259	0.0979659
254	0xbd5b965d	-0.053610194
255	0x3e20a23e	0.1568689

lstm.weight_hh_l0 f4 [200, 50]
0	0xbd8cf3b4	-0.0688242
1	0x3dc57612	0.09641661
2	0x39abe7b2	0.00032788288
3	0xbdce24cc	-0.10065612
4	0x3cce8bee	0.025213208
5	0xbd00314f	-0.031297024
6	0xbcdc30c4	-0.026878722
7	0x3e2f2f22	0.17107823
8	0xbe0edfb8	-0.1395253
9	0x3ddcb1d6	0.10776107
10	0x3e370780	0.17873955
11	0x3dd8e5db	0.105907165
12	0xbd40193b	-0.04689906
13	0xbd8d029c	-0.06885263
14	0x3d742b6c	0.059611723
15	0xbd4c4300	-0.049868584
16	0xbd197c23	-0.0374719
17	0x3d8500ea	0.06494315
18	0xbd04717a	-0.032334782
19	0xbe5535b8	-0.20821273
20	0xbe5de350	-0.21668744
21	0xbe01d349	-0.12678255
22	0x3e5f84d2	0.2182801
23	0xbe41d5cd	-0.18929215
24	0x3dec602b	0.1154178
25	0x3971d37b	0.00023062334
26	0x3da24558	0.079233825
27	0x3e19d062	0.15020898
28	0x3dafb8ed	0.08580194
29	0x3de229f8	0.11043161
30	0x3da946bd	0.082654454
31	0xbd61b558	-0.055104584
32	0x3d843744	0.064558536
33	0xbdad2855	-0.08454958
34	0x3e4cfc3e	0.20018098
35	0x3e81f45d	0.25381747
36	0xbd7aa0ec	-0.061188623
37	0x3e6d85fa	0.23195639
38	0xbde13f04	-0.109983474
39	0x3bd3b095	0.006460259
40	0x3e41020c	0.18848437
41	0xbdaf4eb1	-0.08559931
42	0x3d0c01c1	0.03418136
43	0xbc969060	-0.01837939
44	0xbc5bdd52	-0.013419466
45	0x3e7c6137	0.2464646
46	0x3c962f79	0.018333184
47	0xbe79f53e	-0.24409959
48	0xbdbada59	-0.09123678
49	0xbc5418c8	-0.012945361
50	0xbe1b7b7f	-0.15183829
51	0xbe2367e7	-0.15957604
52	0xbe2c4cb4	-0.16826135
53	0x3da60083	0.08105566
54	0xbdfbb1c9	-0.12289769
55	0xbdb07c1b	-0.08617421
56	0x3d1bd7df	0.038047668
57	0x3d5c8358	0.053836197
58	0x3c6edd17	0.014579079
59	0xbdc70c03	-0.09719088
60	0x3e1a6f94	0.15081626
61	0x3dddcfa4	0.1083062
62	0xbd7b574d	-0.061362553
63	0xbddb91ca	-0.107211664
64	0xbd867a9b	-0.06566354
65	0x3db54df8	0.08852762
66	0xbd19d4d7	-0.037556496
67	0xbe1a36bc	-0.15059942
68	0xbc32aae4	-0.010905001
69	0xbe498658	-0.19680154
70	0xbe32fbe7	-0.17478906
71	0xbe32aab3	-0.17447929
72	0x3d250015	0.04028328
73	0xbcbb1e65	-0.022841642
74	0x3a2ded31	0.00066347705
75	0x3d88357d	0.06650827
76	0xbd119902	-0.03554631
77	0x3e0e1792	0.13876179
78	0xbd9b8830	-0.07594335
79	0xbe0d89d8	-0.13822114
80	0xbe198ce1	-0.14995147
81	0x3cda3405	0.026636133
82	0xbd19276b	-0.037391108
83	0x3e5be56f	0.2147424
84	0xbd0de406	-0.03464129
85	0x3c8ca5dc	0.017168932
86	0x3e09f9ed	0.13474245
87	0xbd542bc5	-0.051799554
88	0x3d5100c8	0.051026136
89	0xbe389d89	-0.18028845
90	0x3cd6fe64	0.02624435
91	0xbc3f43a5	-0.011673843
92	0xbe4c39ac	-0.19943875
93	0xbcf3472d	-0.029697025
94	0xbc4c5d56	-0.012473425
95	0x3da55c4f	0.08074247
96	0xbda92011	-0.08258069
97	0x3ca3659d	0.019945914
98	0x3d4d345a	0.050098754
99	0x3e39c16e	0.18140194
100	0x3d8b7e74	0.068112284
101	0xbde5571d	-0.11198256
102	0x3b18051e	0.002319641
103	0x3d2e2ed3	0.042525124
104	0xbda0611c	-0.07831022
105	0xbe17f279	-0.1483859
106	0x3d8f36eb	0.06992897
107	0xbd412aaa	-0.04715983
108	0xbe0a620c	-0.13513964
109	0xbe1e5d5b	-0.154653
110	0xbb8a0413	-0.0042119115
111	0x3d330f0e	0.04371553
112	0xbe2b1cca	-0.16710201
113	0x3da35602	0.07975389
114	0xbd8e35f1	-0.06943882
115	0x3d9b9e3c	0.0759854
116	0x3d1d5157	0.03840765
117	0x3d42374f	0.047416028
118	0x3de9f55e	0.11423753
119	0xb9e1e6cc	-0.000430873
120	0x3dc01dbd	0.09380672
121	0xbdef4150	-0.11682379
122	0xbd098dec	-0.033582613
123	0xbe0fedf4	-0.14055616
124	0x3d812a85	0.06306938
125	0x3d8847c6	0.06654315
126	0x3d0e961a	0.034811117
127	0x3e2d8068	0.16943514
128	0x3de1f9c3	0.110339664
129	0x3dfb6317	0.12274759
130	0xbcb92731	-0.022601696
131	0xbdab2acf	-0.083577745
132	0xbd1f4825	-0.03888716
133	0x3cea4b0d	0.02860024
134	0x3e3d7b6a	0.1850411
135	0x3dfe2c2a	0.124107674
136	0x3e28292a	0.16421953
137	0x3e3ec316	0.18629107
138	0xbcf665b6	-0.030077796
139	0xbd590fb3	-0.052993488
140	0xbd562174	-0.052277997
141	0x3d70ac4a	0.058758058
142	0x3dc290e3	0.09500291
143	0xbdbe298a	-0.09285267
144	0x3ccfef1c	0.02538257
145	0x3dbc189e	0.09184383
146	0xbd822a81	-0.06355763
147	0xbe3ba19e	-0.18323371
148	0x3df353ce	0.11881219
149	0x3dbf4d7a	0.09340949
150	0x3d825ce7	0.06365376
151	0x3d661418	0.056171507
152	0xbcebcf84	-0.028785475
153	0xbe419e2c	-0.18907994
154	0xbd036c02	-0.032085426
155	0x3c50121d	0.012699631
156	0xbe023b4f	-0.12717937
157	0x3d1b0bbf	0.037853
158	0x3d6d22d6	0.05789455
159	0x3dc52ed2	0.09628071
160	0xbca0533a	-0.019570936
161	0x3d216355	0.03940137
162	0xbe279e0e	-0.16368887
163	0xbde809cb	-0.11329993
164	0x3e024e6c	0.12725228
165	0x3d1e2a5a	0.03861461
166	0xbc688a37	-0.014193109
167	0xbda3d1a6	-0.07998972
168	0xbcfd1e9e	-0.030898388
169	0xbe420e66	-0.18950805
170	0x3d249157	0.04017767
171	0x3d3031e6	0.043016337
172	0x3de2348c	0.11045179
173	0xbd94866e	-0.07252203
174	0xbcc271eb	-0.023735961
175	0xbe28aeec	-0.16472977
176	0x3d34241d	0.043979753
177	0x3eb26a7b	0.34846863
178	0xbe419dc2	-0.18907836
179	0x3e9169d9	0.28401068
180	0xbe5d4ebb	-0.21612065
181	0x3d8391b9	0.06424279
182	0x3db1cec9	0.08682019
183	0x3d147e71	0.036253396
184	0x3e02109d	0.1270165
185	0x3e4bedde	0.19914958
186	0xbddd4bde	-0.10805486
187	0x3d426a87	0.047464874
188	0xbde5195e	-0.11186479
189	0xbe3285f6	-0.17433915
190	0xbdb87d25	-0.090082444
191	0x3d8a941f	0.06766533
192	0xbe14a339	-0.1451539
193	0xbe4bb794	-0.19894248
194	0x3e289ec8	0.1646682
195	0x3cc034f9	0.02346276
196	0x3c880c72	0.016607497
197	0xbe8f76b6	-0.28020257
198	0x3d031700	0.032004356
199	0xbbe8ee6f	-0.0071085016
200	0x3b56afb6	0.003275854
201	0xbda1015c	-0.078615874
202	0x3db10273	0.08643045
203	0x3d9af35d	0.07565949
204	0x3e0cde70	0.13756728
205	0xbda928dd	-0.08259747
206	0x3e549815	0.2076114
207	0xbd9f037a	-0.07764335
208	0x3de418db	0.11137553
209	0x3e0a2fa9	0.13494743
210	0xbdc19626	-0.09452467
211	0x3d450ca0	0.048107743
212	0x3d66a3ec	0.05630867
213	0xbcf1b911	-0.029507192
214	0xbdc0d932	-0.09416427
215	0xbdd1fbd3	-0.1025311
216	0x3cbc2ec1	0.022971513
217	0x3c7bb964	0.015364025
218	0x3d817582	0.06321241
219	0x3e608503	0.2192574
220	0x3ddd8cf6	0.10817902
221	0x3e2659f6	0.16245255
222	0x3cdfac2f	0.027303783
223	0x3e29abd9	0.16569461
224	0xbe2417d2	-0.16024712
225	0x3e2a9bcf	0.16660999
226	0xbd309ca1	-0.043118123
227	0xbde8eb0e	-0.11372958
228	0x3e162ad5	0.14664777
229	0x3dd7832e	0.105230674
230	0xbdab0ad3	-0.08351674
231	0x3d8b9888	0.068162024
232	0xbdd0c5e6	-0.10193996
233	0xbe194c48	-0.14970505
234	0xbd9b6ea3	-0.07589462
235	0xbd84d58a	-0.06486042
236	0x3cf3ac53	0.029745257
237	0xbe0df847	-0.13864242
238	0xbd59b858	-0.05315432
239	0xbd4b56a3	-0.04964317
240	0x3d375253	0.044756245
241	0xbd5aea9d	-0.0534464
242	0x3db9096d	0.09035001
243	0xbc64765a	-0.013944233
244	0xbdcbcb08	-0.099508345
245	0xbdc63e50	-0.09679854
246	0x3de58093	0.11206164
247	0x3dbe6824	0.09297207
248	0xbd88d814	-0.06681839
249	0x3b856e70	0.004072003
250	0x3d05b981	0.032647613
251	0x3df5382d	0.11973605
252	0x3e280092	0.16406468
253	0xbc8a8869	-0.016910749
254	0x3d791977	0.0608153
255	0x3dc0475d	0.093886115

lstm.bias_ih_l0 f4 [200]
0	0xbe49e569	-0.1971642
1	0x3e80fa30	0.25190878
2	0xbc4a328d	-0.012341154
3	0xbe85e73b	-0.26152977
4	0xbe8d8143	-0.2763768
5	0x3e3ae538	0.18251503
6	0xbe235a2e	-0.1595237
7	0xbda7c214	-0.08191314
8	0x3b4267eb	0.002966399
9	0x3d1e3bb0	0.03863114
10	0xbdf6bc6f	-0.120476596
11	0x3e6e376d	0.23263331
12	0x3eaaa269	0.33327034
13	0xbdd3d058	-0.10342473
14	0xbd7db762	-0.061942466
15	0x3d0df9e9	0.03466216
16	0xbe45ff5e	-0.19335696
17	0xbdcd9f7e	-0.10040186
18	0xbd8089de	-0.06276296
19	0xbe831685	-0.2560312
20	0xbe91ac94	-0.2845198
21	0xbe79b51a	-0.24385491
22	0xbe2b2e1b	-0.16716807
23	0xbeacf304	-0.33779156
24	0xbe8ab931	-0.27094415
25	0xbe76694c	-0.24063605
26	0x3e17b587	0.14815341
27	0x3d3a96c8	0.045553952
28	0x3d88fa53	0.066883706
29	0x3e9a7017	0.30163643
30	0x3ec889f8	0.39167762
31	0x3eb3cfb5	0.35119405
32	0xbdc826ab	-0.09773
33	0xbde5764f	-0.11204206
34	0xbe3e3af5	-0.18577178
35	0x3d5b1ea5	0.05349602
36	0x3df14973	0.117815875
37	0xbe18adb1	-0.14910008
38	0xbd00738a	-0.031360187
39	0xbe8d5d49	-0.27610233
40	0xbe2026b9	-0.15639772
41	0x3dae1d17	0.08501642
42	0x3e6e94b6	0.23298916
43	0xbe992aee	-0.29915565
44	0x3e840e07	0.25791952
45	0x3da05e36	0.07830469
46	0xbd6fff8a	-0.05859331
47	0x3e5f8f01	0.21831895
48	0x3b01bcad	0.0019796297
49	0xbdc6f9c0	-0.09715605
50	0xbdf787a8	-0.12086421
51	0xbca1d58d	-0.01975515
52	0xbe311aa6	-0.17295322
53	0xbe81cb3b	-0.25350365
54	0xbe0317dd	-0.12802072
55	0x3ca52a9e	0.020161923
56	0xbe405c66	-0.18785247
57	0xbde0efcd	-0.10983238
58	0xbbf15eda	-0.0073660435
59	0x3da1b17d	0.07895181
60	0xbda054e4	-0.078286916
61	0xbddf1948	-0.10893494
62	0x3d9c5be2	0.07634713
63	0xbdc80f66	-0.09768562
64	0x3ccf4b40	0.025304437
65	0xbd340cc6	-0.043957494
66	0x3dcbff8c	0.09960851
67	0xbbaad203	-0.0052130236
68	0xbe372993	-0.17886953
69	0x3d3e4adf	0.04645812
70	0x3ddd420c	0.10803613
71	0x3da19f73	0.07891741
72	0xbd4f3322	-0.050585873
73	0xbe254dd5	-0.16142972
74	0x39ffbc04	0.00048777473
75	0x3da6eab7	0.08150237
76	0x3d8893df	0.06668829
77	0xbe03e8c4	-0.12881762
78	0xbe395c16	-0.18101534
79	0x3e075a58	0.13218057
80	0x3e36f80f	0.17868064
81	0xbc066b1a	-0.008204246
82	0x3b18fa35	0.0023342494
83	0xbea7165f	-0.32634255
84	0x3de0f7dd	0.10984776
85	0x3ddb0811	0.10694898
86	0x3d33d6a0	0.043905854
87	0xbde24891	-0.11048997
88	0xbe8950c9	-0.26819447
89	0xbe3e7ec7	-0.18603049
90	0xbde5bc1b	-0.11217519
91	0x3ca87f0f	0.020568399
92	0x3def133c	0.116735905
93	0xbddb4a4d	-0.10707531
94	0x3e25d718	0.16195333
95	0x3d20f9fa	0.039300896
96	0x3d2bbd7a	0.041928746
97	0x3e0d051a	0.13771477
98	0xbe504f7e	-0.20342824
99	0x3db56199	0.08856506
100	0xbdd6c4c6	-0.1048675
101	0x3e081be9	0.13291897
102	0xbd8c71b2	-0.06857623
103	0xbe2cae96	-0.16863474
104	0xbe9f6bda	-0.31136972
105	0x3deb1058	0.11477727
106	0xbd272242	-0.040804155
107	0x3dc29a15	0.09502045
108	0x3da299aa	0.07939465
109	0x3e6eecf7	0.23332582
110	0xbcd62176	-0.026139002
111	0x3e7453c7	0.23860084
112	0x3e2b5246	0.16730604
113	0xbe83e3d9	-0.2575977
114	0x3e0e650c	0.13905734
115	0x3cf4533a	0.029824842
116	0xbda77f97	-0.08178633
117	0xbe0b7893	-0.13620214
118	0xbe22d25a	-0.15900555
119	0xbe8745e1	-0.264205
120	0xbe3dc781	-0.18533136
121	0xbe857f0d	-0.26073495
122	0x3e600ff9	0.21881093
123	0xbe5b5950	-0.21420789
124	0x3e50d6aa	0.20394388
125	0xbe80730c	-0.25087774
126	0xbce9d895	-0.028545657
127	0xbe40e374	-0.18836766
128	0xbd1c6972	-0.038186498
129	0xbe2ba60f	-0.16762565
130	0xbd8a19ed	-0.06743226
131	0x3e9aac04	0.30209363
132	0xbd3c132e	-0.04591673
133	0x3d7f6bdf	0.062358733
134	0x3e4be264	0.1991058
135	0xbe1fce40	-0.15606022
136	0xbe5caeaf	-0.21551012
137	0x3d10f871	0.035393182
138	0xbe5e516b	-0.21710746
139	0xbd3c4197	-0.04596099
140	0x3e8d9d91	0.27659276
141	0xbe5910be	-0.21197793
142	0xbbc2d199	-0.005945396
143	0xbe53900d	-0.2066042
144	0xbe41dc7e	-0.18931767
145	0xbdd98755	-0.10621516
146	0xbe5e6e50	-0.21721768
147	0x3e8dc085	0.27685943
148	0xbe9c8a38	-0.30574203
149	0x3e72def7	0.23717867
150	0xbd672970	-0.056436002
151	0x3e4ef526	0.20210704
152	0xbd0ddc28	-0.034633785
153	0xbe6cbc73	-0.23118763
154	0xbe0d9a8e	-0.13828489
155	0x3e738a8e	0.23783323
156	0xbe6d3ea1	-0.23168422
157	0xbdcc3f3b	-0.09972998
158	0x3e04cb33	0.1296814
159	0x3e4704eb	0.1943547
160	0xbe089a78	-0.13340175
161	0x3e2956b0	0.16536975
162	0x3d69460a	0.05695156
163	0xbda8344c	-0.082131
164	0xbd88e9a4	-0.066851884
165	0x3e38a041	0.18029882
166	0xbd8106ad	-0.063001014
167	0x3dc1df52	0.09466423
168	0xbe35d4da	-0.17756978
169	0xbe957bb6	-0.29195946
170	0xbe86c0a6	-0.26318854
171	0x3c0a49f9	0.008440488
172	0xbdf1880f	-0.11793529
173	0xbe348bf2	-0.1763151
174	0xbe02944e	-0.12751886
175	0xbd769060	-0.06019628
176	0xbd4ec36a	-0.05047933
177	0x3d705928	0.058678776
178	0xbdc7556c	-0.0973309
179	0x3d2a5bb5	0.041591365
180	0x3e29a128	0.16565382
181	0x3e724f76	0.23663124
182	0xbe73a553	-0.23793535
183	0xbe8e7526	-0.27823752
184	0xbdf3da97	-0.11906927
185	0x3e9cfeaf	0.30663058
186	0x3e31ed56	0.17375693
187	0xbdcc079f	-0.09962391
188	0xbe6d4910	-0.23172402
189	0xbe88c46d	-0.2671236
190	0xbe4dcbf9	-0.2009734
191	0x3bf1a590	0.007374473
192	0x3e8a504f	0.27014396
193	0xbd504f03	-0.0508566
194	0xbd062473	-0.032749604
195	0xbc80cec5	-0.015723595
196	0xbd8d7526	-0.0690711
197	0x3e2765cc	0.16347426
198	0xbd996a9c	-0.07491037
199	0x3c081c10	0.008307472

lstm.bias_hh_l0 f4 [200]
0	0xbe0d3d1f	-0.13792847
1	0x3e15fa47	0.14646254
2	0xbe50af9c	-0.2037949
3	0xbe3abebc	-0.18236822
4	0xbe29f7b4	-0.16598397
5	0x3e9ea601	0.30986026
6	0xbca6af88	-0.020347372
7	0xbe023793	-0.12716512
8	0x3e2a3117	0.16620289
9	0x3e0c122f	0.13678811
10	0x3bdf2a28	0.0068104453
11	0x3e0fb14e	0.1403248
12	0x3e82858f	0.25492522
13	0xbe8ff87c	-0.28119266
14	0xbe577ede	-0.2104449
15	0x3e61012e	0.21973106
16	0xbe59e572	-0.21278933
17	0x3e03b646	0.128625
18	0xbe81e7e4	-0.2537223
19	0xbdcffab9	-0.101552434
20	0xbd9898d7	-0.07451027
21	0xbdd13aa8	-0.10216266
22	0xbe994660	-0.29936504
23	0xbdba5176	-0.09097569
24	0xbe9bc2d2	-0.30422074
25	0xbe52c25a	-0.20581952
26	0x3e113049	0.14178576
27	0x3e4cc5bf	0.19997309
28	0xbbba4ae8	-0.005685199
29	0x3e577078	0.21038997
30	0x3ec422c3	0.3830777
31	0x3e345d6f	0.17613767
32	0x3d39555f	0.04524743
33	0x3c5188cd	0.0127889635
34	0xbe3aaeff	-0.18230818
35	0x3d94b677	0.07261365
36	0x3ea8041d	0.32815638
37	0xbe841e3c	-0.25804317
38	0xbd136e7d	-0.03599404
39	0xbe9f3558	-0.31095386
40	0xbe2b41d2	-0.16724327
41	0x3d8ddea0	0.06927228
42	0x3e15906e	0.14605877
43	0xbe951688	-0.29118752
44	0x3dfa4359	0.12219877
45	0x3cb367d6	0.021900099
46	0xbe11f6b5	-0.14254268
47	0x3eb10c28	0.34579587
48	0x3caca51c	0.021074824
49	0xbe52f0e7	-0.2059971
50	0xbe9743fe	-0.2954406
51	0x3e14ebe2	0.14543107
52	0xbe233c15	-0.15940888
53	0xbe9ae635	-0.3025376
54	0xbdeed75b	-0.116621695
55	0x3b7a2e9f	0.003817476
56	0xbdfa4817	-0.12220781
57	0xbd6e99fa	-0.058252312
58	0xbc1788c4	-0.009248916
59	0xbc929c02	-0.017896656
60	0x3c42b514	0.011883993
61	0xbc597f90	-0.013275042
62	0x3c700112	0.014648693
63	0xbe0e563c	-0.13900083
64	0xbd8e2bde	-0.06941961
65	0xbdecc4f6	-0.11561005
66	0xbdc5f966	-0.096667096
67	0xbe11eb91	-0.14250018
68	0xbe22d0d1	-0.1589997
69	0x3bd1c93b	0.0064021624
70	0xbdc63a4b	-0.09679087
71	0x3c43a977	0.011942259
72	0x3c107963	0.008818003
73	0xbe0e89a5	-0.13919695
74	0x3d96dcc1	0.07366324
75	0x3e066aed	0.13126726
76	0x3d32c210	0.043642104
77	0xbe0c503a	-0.13702479
78	0xbe259a77	-0.16172205
79	0x3cb7ca0f	0.022435216
80	0x3dc0d629	0.09415848
81	0x3ca94cb1	0.020666452
82	0xbb8cd9de	-0.0042984327
83	0xbe88783d	-0.26654235
84	0x3dddec25	0.108360566
85	0xbe029dd7	-0.12755524
86	0x3d25f801	0.040519718
87	0x3d6ceef7	0.057845082
88	0xbe924262	-0.2856627
89	0xbe2ff323	-0.17182593
90	0xbc7b5c6b	-0.015341858
91	0xbcfd3db0	-0.030913204
92	0x3e110448	0.1416179
93	0x3d8ee9eb	0.0697821
94	0x3dcc6719	0.09980602
95	0x3e3df599	0.1855072
96	0x3e33e7ea	0.17568937
97	0x3e250499	0.16115035
98	0xbcb85d76	-0.022505503
99	0xbd12d2ad	-0.035845447
100	0xbe4fa6aa	-0.20278421
101	0x3e5162ce	0.20447847
102	0xbe632117	-0.22180592
103	0xbdbc64a1	-0.09198881
104	0xbea9785c	-0.3309964
105	0x3e4a8770	0.19778228
106	0xbe8aab21	-0.27083686
107	0x3e1e614f	0.15466808
108	0x3d82db25	0.06389455
109	0x3e0281b7	0.12744795
110	0x3ddf9a06	0.109180495
111	0x3e3c7ba4	0.1840654
112	0x3d636117	0.055512514
113	0xbe71cd5c	-0.23613495
114	0x3e9343f4	0.28762782
115	0x3e404322	0.18775609
116	0xbe967411	-0.29385427
117	0xbe8645df	-0.26225182
118	0xbe71e64d	-0.23623009
119	0xbe7d6fbc	-0.24749655
120	0xbde6ca99	-0.11269111
121	0xbd74d539	-0.059773657
122	0x3da3b4e6	0.07993488
123	0xbe4339bd	-0.19064994
124	0x3ea7fa99	0.32808378
125	0xbe1dde10	-0.15416741
126	0xbdf094f5	-0.11747161
127	0xbe2957af	-0.16537355
128	0x3e1dacae	0.15397903
129	0xbd17adff	-0.03703117
130	0xbe4cab96	-0.1998733
131	0x3e80bace	0.2514252
132	0xbbc82718	-0.006108176
133	0x3e1b317d	0.15155597
134	0x3e329d16	0.17442736
135	0xbd7cc1f6	-0.061708413
136	0xbe8a640b	-0.27029452
137	0x3d5cfff1	0.053955022
138	0xbe538e2f	-0.20659707
139	0xbda5fe5d	-0.081051566
140	0x3e535251	0.2063687
141	0xbe5c371d	-0.21505399
142	0xbe264c68	-0.16240084
143	0xbe4dbbe1	-0.20091201
144	0xbde41a7a	-0.111378625
145	0x3c84c925	0.016209194
146	0xbe6c82af	-0.23096727
147	0x3e020830	0.12698436
148	0xbe48d318	-0.19611776
149	0x3e9af79d	0.3026704
150	0xbd56aedc	-0.052412853
151	0x3db0584f	0.086105935
152	0xbe1898da	-0.14902058
153	0xbe8497c3	-0.25897035
154	0x3c31787d	0.010831949
155	0xbccf8e13	-0.025336301
156	0xbdf1d305	-0.11807827
157	0xbd6a1dbe	-0.05715727
158	0x3e7f1501	0.24910356
159	0x3e81ceab	0.25352988
160	0xbdbd6a63	-0.09248807
161	0x3e795a73	0.2435091
162	0x3e0ec54b	0.13942449
163	0xbe54ce0b	-0.20781724
164	0xbe662f26	-0.22478923
165	0x3e10db12	0.14146069
166	0xbe966f58	-0.29381824
167	0xbd6d3eb0	-0.05792111
168	0xbdff68c8	-0.12471157
169	0xbe3ceff1	-0.18450905
170	0xbc5ea40e	-0.013588918
171	0xbe4fb811	-0.2028506
172	0xbe1b2cab	-0.15153758
173	0xbe2dc29f	-0.16968773
174	0xbe52976c	-0.20565575
175	0xbe0c8c21	-0.1372533
176	0xbd1866d4	-0.03720744
177	0x3bb205b2	0.005432808
178	0xbc8f1f61	-0.017471017
179	0x3d16654d	0.0367177
180	0x3e5ed00f	0.21759056
181	0x3e4927c0	0.1964407
182	0xbe57e4a5	-0.21083315
183	0xbd909f30	-0.070616126
184	0xbd399f7b	-0.045318108
185	0x3e7fcc64	0.24980313
186	0x3e52bbb2	0.20579413
187	0xbe893154	-0.26795447
188	0xbe17f5d4	-0.1483987
189	0xbda77455	-0.081764854
190	0xbe82b188	-0.2552607
191	0x3de0cf21	0.10977007
192	0x3e6b6bfb	0.2299041
193	0xbdab6a48	-0.08369881
194	0x3d1d950c	0.03847222
195	0xbe8041f0	-0.25050306
196	0xbe1fb126	-0.1559492
197	0xbd3d2890	-0.04618126
198	0xbe048b7c	-0.12943834
199	0xbd5b4d4e	-0.05354052

linear.weight f4 [70, 50]
0	0x3e0397d8	0.12850893
1	0xbee1bb81	-0.44088367
2	0xbd73fb07	-0.05956557
3	0x3d78f5fa	0.060781457
4	0x3d983a10	0.074329495
5	0xbea83d8d	-0.3285946
6	0xbd91ad17	-0.071130924
7	0xbd971089	-0.07376201
8	0xbe88fcbb	-0.26755318
9	0xbe9f857a	-0.31156522
10	0x3e0582ad	0.1303813
11	0xbec40fef	-0.38293406
12	0xbe3f562b	-0.18685214
13	0x3d2642ec	0.040591165
14	0x3c490558	0.01226934
15	0xbe883b98	-0.26607966
16	0x3e14edbd	0.14543815
17	0x3e21c69b	0.15798418
18	0x3d4aee4b	0.04954366
19	0xbbc046bd	-0.0058678077
20	0x3de2a259	0.110661216
21	0x3dc4e1f9	0.09613413
22	0xbc984193	-0.018585956
23	0xbc812630	-0.01576528
24	0xbd849271	-0.06473244
25	0x3d9cf56d	0.07663999
26	0x3db8cc3a	0.09023328
27	0xbce6d195	-0.028176108
28	0x3e02e346	0.1278201
29	0x3dcb34f5	0.0992221
30	0x3eb1e978	0.34748435
31	0xbe6fd4cf	-0.23421024
32	0x3d821c76	0.06353085
33	0xbe4c626d	-0.19959421
34	0xbc092c31	-0.008372352
35	0xbc950696	-0.018191617
36	0x3e261b73	0.16221409
37	0x3db506aa	0.08839162
38	0x3e11de8e	0.14245054
39	0x3d697158	0.05699286
40	0x3d03f999	0.032220457
41	0x3e7326cb	0.23745267
42	0x3e96a4fe	0.29422754
43	0x3deb666f	0.11494147
44	0x3d3479f0	0.0440616
45	0x3e30623b	0.17224972
46	0xbc2a31dc	-0.010387864
47	0xbd346a7c	-0.044046864
48	0x3e6694b1	0.22517659
49	0xbd4a4283	-0.049379837
50	0x3dbfc043	0.09362843
51	0xbea15ba8	-0.3151524
52	0x3c536f7b	0.012904997
53	0x3df48f94	0.11941448
54	0x3c519380	0.012791514
55	0xbe91579f	-0.28387162
56	0x3dd190b3	0.10232677
57	0x3d84be5a	0.06481619
58	0xbdde48a5	-0.108536996
59	0xbe5168f0	-0.20450187
60	0x3ddbbc2d	0.10729251
61	0xbd9fdd40	-0.07805872
62	0xbbf3b40e	-0.0074372357
63	0x3d43b2f6	0.047778092
64	0xbd7e3f96	-0.06207236
65	0xbe203213	-0.15644102
66	0x3d85affa	0.065277055
67	0x3dc0f992	0.09422602
68	0x3e0cee22	0.13762715
69	0x3c821185	0.015877495
70	0x3d80fe16	0.06298463
71	0x3dcf7a03	0.10130694
72	0xbdf104f7	-0.11768525
73	0xbd4109e6	-0.04712858
74	0xbd8a90b7	-0.067658834
75	0xbbe975f4	-0.007124657
76	0x3e1a8355	0.15089162
77	0xbbbc6275	-0.0057490417
78	0x3cc55ec4	0.02409304
79	0x3d899384	0.067175895
80	0x3e2d4c99	0.16923751
81	0xbe4bb251	-0.19892241
82	0x3ddad694	0.10685459
83	0xbd8957ff	-0.06706237
84	0xbdd14e67	-0.10220032
85	0xbcfbc450	-0.030733258
86	0x3e5ce8a5	0.21573122
87	0x3df7ce47	0.12099891
88	0xbd86b8a2	-0.06578185
89	0xbe055d54	-0.13023883
90	0x3cbb28c1	0.022846581
91	0x3ead5e63	0.33861074
92	0x3e802e04	0.25035107
93	0xbd9f9fb3	-0.07794132
94	0x3e741877	0.23837458
95	0x3de2d1c0	0.11075163
96	0x3d88a248	0.06671578
97	0xbc46bddd	-0.012130228
98	0x3c2eddb7	0.010672978
99	0xbd99c27f	-0.075078
100	0x3d934d5b	0.07192489
101	0xbe753ae0	-0.2394824
102	0x3dd1e759	0.10249204
103	0x3e236279	0.15955533
104	0xbb8ae8ec	-0.004239192
105	0xbe8368f8	-0.25666022
106	0xbc381576	-0.011235585
107	0xbd181386	-0.037127994
108	0xbd7f5ff8	-0.062347382
109	0xbdaef3a9	-0.08542568
110	0x3dd6026f	0.10449683
111	0xbe8c260f	-0.27372786
112	0xbe3902d4	-0.18067485
113	0xbc9024b6	-0.01759563
114	0xbdcaab77	-0.098959856
115	0xbe0fa015	-0.1402591
116	0xbd27330e	-0.040820174
117	0x3e2a9e27	0.16661893
118	0x3ddb384a	0.10704096
119	0x3b929d29	0.0044743014
120	0xbd2e754a	-0.042592324
121	0x3c40126e	0.011723144
122	0xbd4dbdb3	-0.05022974
123	0x3dbebe52	0.093136445
124	0xbe109d2a	-0.14122453
125	0x3e036db9	0.12834825
126	0x3c600d7d	0.013675091
127	0xbcba2a5b	-0.022725275
128	0x3c1609a9	0.009157577
129	0x3d239c86	0.039944194
130	0x3dfa051c	0.12208006
131	0xbe0f3f44	-0.13988978
132	0x3e2e7e6b	0.17040412
133	0xbd466c73	-0.04844327
134	0xbbf99568	-0.0076166876
135	0xbd0981f7	-0.03357121
136	0x3e4501c9	0.19238962
137	0xbc449715	-0.011998911
138	0x3e275910	0.16342568
139	0x3d9a7f68	0.07543832
140	0xbd0eeea0	-0.03489554
141	0x3e9a4896	0.30133504
142	0x3e552da1	0.20818187
143	0x3da38f77	0.07986348
144	0x3e291a6c	0.16513985
145	0xbd459513	-0.04823787
146	0x3e1fb2d3	0.1559556
147	0xbd0dbf83	-0.034606468
148	0x3d753f2a	0.05987469
149	0xbd9b573a	-0.075849965
150	0x3e1631b4	0.14667398
151	0xbe82f84f	-0.2558007
152	0x3bb8a4bf	0.0056348736
153	0x3e2de185	0.1698056
154	0x3e074bff	0.13212584
155	0xbe17deae	-0.1483104
156	0xbcb70cd8	-0.022344992
157	0xbda44dde	-0.080226645
158	0xbe9d382a	-0.30706912
159	0xbe71e7e3	-0.23623614
160	0x3e354b7b	0.17704575
161	0xbea11784	-0.31463253
162	0xbe1f8088	-0.15576375
163	0xbd0565c5	-0.032567758
164	0xbd422104	-0.047394767
165	0xbd9b6f4d	-0.07589588
166	0xbd357e41	-0.04430986
167	0x3e057c07	0.13035594
168	0xbdb52789	-0.08845431
169	0xbcc10ad9	-0.023564743
170	0x3d2b8000	0.041870117
171	0xbcc943bc	-0.024568431
172	0xbe14839a	-0.14503327
173	0xbe0faf5c	-0.14031738
174	0xbdd48b33	-0.10378113
175	0xbd66e737	-0.056372847
176	0xbc899e0c	-0.016798995
177	0xbe267d43	-0.16258721
178	0x3d89a402	0.06720735
179	0x3e5cc222	0.21558431
180	0x3e8cc027	0.2749035
181	0xbe827f5a	-0.25487787
182	0x3ddae327	0.10687857
183	0xbe1fc942	-0.15604118
184	0xbe16bb0c	-0.1471979
185	0xbd9cb4f5	-0.07651702
186	0x3e1cbe57	0.15306984
187	0xbdb2c123	-0.08728244
188	0x3ceb23d2	0.028703604
189	0x3934cee3	0.00017243209
190	0xba9bf310	-0.0011898
191	0x3dbc4684	0.09193137
192	0x3e1053e9	0.14094509
193	0xbd8c55dc	-0.06852314
194	0x3e6731d0	0.22577596
195	0xbd9f0a42	-0.077656284
196	0x3ca07f25	0.019591877
197	0xbe298090	-0.16552949
198	0x3e53f616	0.20699343
199	0x3c233f5a	0.009963835
200	0x3cf63e91	0.03005913
201	0xbe206ff7	-0.15667711
202	0xbcd87c65	-0.026426503
203	0xbcfe81ab	-0.03106769
204	0x3e28ec00	0.16496277
205	0xbe80a23f	-0.25123784
206	0xbd4ccc15	-0.049999315
207	0xbd273ba9	-0.04082838
208	0xbe3befea	-0.18353239
209	0xbddf510a	-0.10904129
210	0x3e083c59	0.13304271
211	0xbe174de3	-0.14775805
212	0xbd8a9551	-0.06766761
213	0x3c419098	0.011814259
214	0xbc9e5ec5	-0.019332299
215	0xbe1af467	-0.15132295
216	0x3dd52ba0	0.104087114
217	0x3e571eaa	0.21007791
218	0xbcb37f8f	-0.02191141
219	0x3e07bc0a	0.13255325
220	0x3e1fd1b8	0.15607345
221	0x3e13b042	0.14422706
222	0xbdce234a	-0.100653246
223	0x3df9bda1	0.12194372
224	0xbd8415c2	-0.064494625
225	0xbde2df1b	-0.1107771
226	0x3e187a65	0.1489044
227	0x3d0410c4	0.03224255
228	0x3c1c5817	0.009542487
229	0x3e3f13e5	0.18659933
230	0x3c286e1c	0.010280158
231	0xbe4b9656	-0.19881567
232	0x3e33239e	0.17494056
233	0xbe1c938c	-0.1529066
234	0x3dc0e8a5	0.094193734
235	0xbdb0dd57	-0.08635967
236	0x3e69e41a	0.2284092
237	0xbda749c8	-0.081683695
238	0x3ce23625	0.027613709
239	0x3d0bdec6	0.034148
240	0xbe2776d9	-0.1635393
241	0x3e4e91d7	0.20172821
242	0x3d44ebe8	0.04807654
243	0x3e0401ab	0.12891261
244	0x3d1c688c	0.03818564
245	0x3d70b392	0.058765
246	0x3d4f314a	0.050584115
247	0xbc0a965e	-0.008458702
248	0x3e69e1aa	0.2283999
249	0x3d845d45	0.06463102
250	0xbcfa05b6	-0.030520301
251	0xbd974236	-0.073856756
252	0x3db14ec1	0.08657599
253	0x3de15877	0.110032015
254	0x3dc49f0e	0.0960065
255	0xbe524e6e	-0.20537731

linear.bias f4 [70]
0	0x3e1a49c2	0.15067199
1	0x3db2e1aa	0.08734448
2	0xbc48cf2e	-0.012256427
3	0x3decaa6e	0.115559444
4	0xbc5e1d06	-0.013556724
5	0x3d9a7707	0.07542234
6	0xbbd1a8cc	-0.006398296
7	0xbd76017f	-0.06006002
8	0xbd2f00c6	-0.042725347
9	0xbd4b6140	-0.04965329
10	0xbd98419e	-0.074343905
11	0x3df8ed9c	0.121546954
12	0xbcea160c	-0.028574966
13	0x3dd9a1f5	0.10626594
14	0x3d26fec9	0.040770326
15	0xbd371013	-0.044693064
16	0x3daccef9	0.084379144
17	0xbd0e3b43	-0.034724485
18	0x3c76e331	0.015068815
19	0x3d8a9747	0.06767135
20	0x3dd6588a	0.10466106
21	0x3dbca2d0	0.092107415
22	0xbdad0ab6	-0.084493086
23	0x3d62d5d2	0.055379696
24	0xbd4f7ebd	-0.050657976
25	0x3d419d43	0.047269117
26	0xbd118fd4	-0.035537556
27	0xbde0623d	-0.109562375
28	0x3dad4116	0.0845968
29	0x3d89306d	0.066986896
30	0x3dc8fa5e	0.09813379
31	0xbdb5f780	-0.088850975
32	0xbd9d1f74	-0.07672015
33	0x3cc7b27a	0.024377096
34	0xbda50089	-0.08056743
35	0x3d704203	0.058656704
36	0x3da4b2e3	0.080419324
37	0x3d9c31e8	0.07626706
38	0x3d763b6e	0.06011527
39	0xbd773c5b	-0.060360294
40	0x3dbb82be	0.091557965
41	0x3dffbde0	0.12487388
42	0x3ca462c2	0.020066623
43	0xbdc5c0ab	-0.09655889
44	0x3dcc1cee	0.099664554
45	0xbd895f15	-0.067075886
46	0xbd071db4	-0.03298731
47	0x3bfdc58a	0.0077444958
48	0xbd772d77	-0.060346093
49	0x3c8545ad	0.016268576
50	0x3c643648	0.013928957
51	0xbdae25ca	-0.085033014
52	0xbd81f986	-0.06346421
53	0xbd3a3e20	-0.045469403
54	0x3db848ba	0.089982465
55	0xbd36086f	-0.044441637
56	0x3d8f1d02	0.06987955
57	0xbd8760ec	-0.06610283
58	0xbd2dd2a0	-0.042437196
59	0xbdd5732f	-0.1042236
60	0xbdacf8fc	-0.084459275
61	0x3d1cb291	0.03825623
62	0xbc71a2e2	-0.014748307
63	0xbd0c8243	-0.034303915
64	0xbd90e61f	-0.07075142
65	0x3de6f878	0.112778604
66	0xbdb276a4	-0.08714035
67	0x3da0f6d7	0.07859581
68	0x3de36123	0.11102512
69	0xbdd894c2	-0.10575248
